model_ckpt/ckpt0_discriminator_unrolled.pt (torch, 656900 bytes, 10 tensors)

label_embedding.weight f4 [18, 18]
000000 50 7c e0 3f d3 df a1 3f 10 b6 80 3f 8b 45 f9 bf
       1.7537937 1.2646431 1.0055561 -1.9474348
000010 24 a4 b9 3e cc 35 ba bf d2 2d 3f be 8e 2f 06 c0
       0.36258042 -1.4547668 -0.18669823 -2.0966525
000020 b4 ad 1a bf 41 04 d1 3f db ae cf be 9e 4f 96 bf
       -0.604213 1.6329423 -0.40563092 -1.1743047
000030 c8 87 80 bf 7d 51 d5 be e8 c5 f5 be 77 97 8c 3f
       -1.0041437 -0.41663733 -0.48002553 1.0983723
000040 48 b3 ea 3f f9 dd bd be c8 7a ed be a8 d9 fd 3e
       1.8335962 -0.37083414 -0.46382737 0.4958012
000050 d0 be 63 bf ac 92 84 3f d6 28 58 3f 80 15 e0 3f
       -0.8896303 1.0357261 0.8443731 1.7506561
000060 fb ad b7 3f 69 97 83 3f ca 40 0b 3f e7 9d ba 3f
       1.434997 1.0280582 0.54395735 1.4579438
000070 a9 13 ac be 99 16 80 3a c8 6a 56 be e0 bb 24 3f
       -0.3360875 0.000977236 -0.20939171 0.64349174
000080 98 e2 b6 bf 61 8e 68 bf 79 e6 11 be ff 29 e4 3f
       -1.4287901 -0.9084225 -0.14248075 1.7825316
000090 59 a2 9b 3e 31 7a e8 be 25 ea 84 3e ee 1b 40 bf
       0.303973 -0.45405725 0.25959888 -0.7504262
0000a0 56 6b de bf 98 8c 78 3f c7 e8 99 bf ae 00 75 bf
       -1.7376506 0.9708953 -1.2024163 -0.9570416
0000b0 47 fe a0 bf 19 08 0d 40 35 38 b3 bf 82 2a df be
       -1.2577599 2.2036192 -1.4001528 -0.43587118
0000c0 73 0a 82 bf 63 77 f4 be 9e 99 41 3e 3b 88 35 3f
       -1.0159439 -0.47747335 0.18906257 0.70910996
0000d0 ed ee b5 be 8e 0c 96 3f bd 95 41 bf 2b 91 2c bf
       -0.35533848 1.1722581 -0.7561911 -0.6740901
0000e0 e4 86 b5 bf 07 5b 46 bd a4 a9 2d bd a6 5b 3a 3f
       -1.418179 -0.048426654 -0.04239811 0.72796094
0000f0 0e 87 d2 bd fe 2e de 3f 77 c7 a3 bf 8e d6 bf 3f
       -0.10279666 1.7358091 -1.2795247 1.4987352
000100 5d 9e ac 3f e1 8c 4b 3f 5f 59 12 40 92 61 03 3f
       1.3485829 0.7951184 2.2867048 0.51320755
000110 3e 01 99 3e 8b 5d 60 be 4f 99 6d bf 3b d7 ac 3f
       0.2988376 -0.21910684 -0.92812055 1.3503183
000120 e9 06 95 3d 6e bd 48 3f 96 a9 3a be 9f 19 41 3e
       0.07276709 0.78414047 -0.18228754 0.1885743
000130 92 e0 51 3f 1f 01 cf be 67 71 04 c0 5b 86 56 bf
       0.8198329 -0.40430543 -2.0694215 -0.8379876
000140 80 2a 5d be be 23 bc bd a0 ce c7 bf 8f 99 55 bf
       -0.21598244 -0.09186505 -1.5609932 -0.83437437
000150 cd 86 4c 3f 43 ac ae 3e 8c 14 65 3f 92 3d 2f be
       0.7989319 0.341158 0.8948448 -0.17113331
000160 1f 0a 64 3f 7a e6 65 be 4d 4c 76 bf 48 a6 35 3f
       0.89077944 -0.22451201 -0.96210176 0.7095685
000170 b5 21 df bf 46 a9 6e bf 08 f7 b3 3f 15 8e 12 3f
       -1.7432162 -0.9322704 1.4059763 0.5724805
000180 41 c7 1f c0 30 5d cb 3e 68 38 31 3f bd 11 20 3e
       -2.4965365 0.39719534 0.69226694 0.15631767
000190 ce e9 04 3f a9 32 f9 3e 04 b5 94 3f a2 74 f7 be
       0.5191926 0.48671463 1.1617742 -0.4833117
0001a0 5e ad 8b be 06 a6 2d 3f 96 e2 13 3f bd d9 93 3e
       -0.27280706 0.67831457 0.5776762 0.2887706
0001b0 c4 1d aa 3e fe 65 aa 3f 66 9c 21 bd 11 a5 ba be
       0.33225834 1.3312376 -0.039455794 -0.3645406
0001c0 cf 64 b3 bf 6f 6a 1f bd e6 46 1d bf d0 4e be 3e
       -1.4015139 -0.038919862 -0.6143631 0.37169504
0001d0 16 5f 2a 3f 10 a3 16 3e 25 91 ed be 4d 90 f1 3e
       0.6655134 0.14710641 -0.463998 0.47180405
0001e0 c3 af 15 3d 21 64 47 3e 8f d9 a7 3d 04 1b 34 3f
       0.036544573 0.1947179 0.08195793 0.7035372
0001f0 5c 83 98 3f ea 4b cb 3e 0b 5a 53 3f 5d ea 02 3f
       1.1915088 0.39706355 0.8255927 0.5113886
000200 fd bd eb 3f 71 63 6a 3f 7b 1f ac bf 3c 46 84 bf
       1.8417355 0.91557986 -1.3447107 -1.0333934
000210 5e 44 f2 bc 2d de cb 3f 37 6c 10 3f 17 3b 2c 3f
       -0.029573616 1.5927178 0.5641512 0.67277664
000220 43 8e 85 3f ce 1c ab bd 99 61 da bf 06 59 53 3f
       1.043404 -0.083551034 -1.7061034 0.82557714
000230 e8 b9 f3 be e2 95 70 3f 6a 84 19 bf db 97 3c 3f
       -0.47602773 0.93978703 -0.5996767 0.73669213
000240 51 9e cd bf 7a 1e a9 3e 33 8d fb 3f 74 2a 00 40
       -1.6063939 0.33031064 1.9652466 2.0025911
000250 d0 25 7e be 38 e1 3b bf 25 80 ab bf eb 30 89 3e
       -0.24819112 -0.7339053 -1.3398482 0.26795134
000260 64 7d 60 3f 80 4f b6 3e b5 e3 3d bd 4c 75 0e 40
       0.8769133 0.3560753 -0.046359736 2.2259092
000270 2b 31 42 c0 ad 05 a8 3d 66 24 11 bf fe c1 ac 3f
       -3.034251 0.082042076 -0.56696165 1.3496702
000280 24 c8 0c c0 c1 3c cb be 49 67 18 bf cf 44 72 bf
       -2.1997156 -0.3969479 -0.595326 -0.94636244
000290 17 f5 22 3f a2 c4 3c be 8d 05 b1 be 17 08 ce bf
       0.6365523 -0.18434384 -0.34574547 -1.6096219
0002a0 0d f3 0a c0 b5 e0 bf 3f eb e3 e7 3f bd 03 f6 be
       -2.1710846 1.499045 1.811643 -0.48049727
0002b0 09 95 8d bf f3 da ae 3f 69 01 6b 3e fe 76 22 40
       -1.1061107 1.3660568 0.22949757 2.5385127
0002c0 8e 6d 21 3f b3 c0 26 3f 8b 57 8d bf b8 c9 4b bf
       0.6305779 0.65137786 -1.1042341 -0.79604673
0002d0 f3 cb b6 bf 0f 59 05 c0 9b db 54 bf e7 2b b1 bd
       -1.428099 -2.0835607 -0.8314759 -0.08650952
0002e0 21 63 6f bf e6 37 f5 bf 32 21 18 c0 bd 19 b3 3e
       -0.93510634 -1.9157684 -2.377026 0.34980574
0002f0 2e 03 b8 3f b9 24 84 bf bd 77 88 3f bb 3c 99 3f
       1.437597 -1.0323707 1.0661541 1.1971658
000300 5e 11 ab 3f d1 69 05 bf a2 30 ba 3f f4 c3 ae 3d
       1.3364675 -0.5211459 1.4546092 0.08533469
000310 5f 97 bb bf d1 0d 08 be 56 16 4a be 5e 8e 30 3f
       -1.465557 -0.1328652 -0.19735083 0.68967235
000320 5a 2c 56 3f ce 09 2c 40 e9 41 87 bf 70 cc bc bf
       0.83661425 2.6880984 -1.0566989 -1.4749889
000330 29 2e d8 be 44 0a 9e 3f 7d a9 ed 3f a7 14 2a be
       -0.42222717 1.2346883 1.8567349 -0.1660944
000340 6c 1d bc be 78 54 b9 be c5 2c 89 bf f1 58 88 bd
       -0.36741197 -0.36197257 -1.0716788 -0.06657589
000350 1d 84 4f 3f 0a 85 7f 3f 43 da ea be a2 21 3e c0
       0.81060964 0.99812376 -0.45869645 -2.9708028
000360 73 0b 96 bf 7c 84 a2 3e 1f 6e b5 bf 80 46 0c 40
       -1.1722244 0.31741703 -1.4174231 2.191803
000370 f7 aa b7 be dc 08 94 bf 26 10 97 3e 4e 7d e5 3f
       -0.35872623 -1.1565204 0.29504508 1.7928865
000380 2b a8 25 3f 8b ad 7c 3f 03 8d 2b 3f 2a 24 93 be
       0.6470973 0.98702306 0.6701204 -0.28738528
000390 0a 6a a2 bf 62 e4 35 3f e7 1c 95 3f bb ec 2a 40
       -1.268861 0.7105161 1.1649445 2.670699
0003a0 b4 c5 d0 be fa 26 d4 bf 08 73 24 c0 fc 63 cb bf
       -0.40775836 -1.6574395 -2.569521 -1.5889888
0003b0 6c 09 ac 3e 9e b0 07 3f cd be 64 be 23 7f 9b bc
       0.33600938 0.5300387 -0.2233841 -0.018981522
0003c0 32 9b b4 bf 7e c7 f5 3e 0e a3 cd bd 6f 1d 34 bc
       -1.4109862 0.48003763 -0.10040866 -0.010993346
0003d0 70 73 f0 be b6 12 f7 3e 7d 49 4c bf 61 55 ee 3f
       -0.46963072 0.48256463 -0.79799634 1.8619806
0003e0 69 ed e0 3f 54 9d 8e be 64 12 06 3f 8b ad 0a 3c
       1.7572452 -0.27854407 0.5237181 0.008464227
0003f0 ff 7f 07 be eb 4d ca bd fd f7 64 3f 4e 90 4f 3f
       -0.1323242 -0.09878143 0.894409 0.81079566

main.0.weight f4 [256, 218]
000000 63 4c 93 3c f9 5e cf 3b 6a 63 d5 3b 4b 03 13 3c
       0.01798076 0.0063284603 0.006512095 0.008972953
000010 e1 75 3c bb 2e c9 12 bc 19 af c2 bb ba 19 1c bb
       -0.0028756785 -0.008959098 -0.0059412834 -0.0023819045
000020 00 49 e6 3b c4 ad 3e bc ff 2c f9 bb e4 81 db bb
       0.0070277452 -0.011638109 -0.007604241 -0.006698834
000030 06 25 c8 bb 31 d6 b1 bb d7 7b 04 3c 12 ce 88 3b
       -0.006107929 -0.005427145 0.008086166 0.004174956
000040 c3 26 2d 3b 0e 37 02 bb 4d ce eb 3b 7d 37 82 bc
       0.002642081 -0.001986924 0.007196224 -0.0158956
000050 bc f8 64 bc a5 29 61 bc cf e5 92 3b 91 40 e6 3b
       -0.0139753185 -0.013742839 0.0044829617 0.00702674
000060 2d 02 03 3c 2e a6 25 3c 66 8f 6d 3c 0d 04 b4 3a
       0.007996124 0.010110421 0.014499521 0.0013734117
000070 bb ad 90 3b ab af 7f 3b 09 57 02 3b 9c c0 95 3c
       0.0044152415 0.0039014618 0.0019888303 0.01828032
000080 4b c6 ae b9 3e 66 0b bc bd c4 9e 3b 4c 09 05 bb
       -0.00033335606 -0.008508263 0.0048452304 -0.002029973
000090 9a d2 c0 bb eb 3f 2c 3b c9 33 65 3c 66 5f 94 3b
       -0.0058844807 0.0026283215 0.013989397 0.004527974
0000a0 98 bc 4f bb 88 a1 c8 39 75 e6 85 3b d7 49 58 3c
       -0.0031698104 0.00038267323 0.0040863105 0.013201199
0000b0 cd eb d8 bb 5f 0a 70 3b c3 46 39 3b 36 67 3f 3b
       -0.0066199065 0.0036627275 0.0028270937 0.0029205806
0000c0 f9 a0 5b 38 88 e4 6d 3b 37 10 80 3b 9f 54 08 bc
       5.2363586e-05 0.0036299545 0.003908183 -0.0083209565
0000d0 f1 1f 09 bb 4a 33 83 bc f6 22 f0 ba a0 f2 50 3c
       -0.002092358 -0.016015667 -0.0018320966 0.012753159
0000e0 4b 3e 28 3c d7 a4 28 bb 60 5f 74 3b dd d0 45 3c
       0.010268758 -0.0025733018 0.0037288293 0.012073723
0000f0 80 b4 1d bb b1 3e 89 3c 9c aa 79 3b 50 6a d0 bb
       -0.0024063885 0.016753526 0.0038096076 -0.0063603297
000100 44 6c 84 3c a3 4c 21 bc 55 94 c7 bb ab 74 1a bc
       0.016164906 -0.009844932 -0.0060906806 -0.00942723
000110 7b d3 b9 3a 2e 7a f8 bb 3f 11 fd 3a 45 e2 db 3b
       0.0014177406 -0.0075829243 0.0019307508 0.006710323
000120 5f 19 4f 3a 42 b7 68 3c e6 c0 7f 3b 33 1e 4e bb
       0.0007900204 0.014203848 0.0039024889 -0.0031451106
000130 f7 55 93 bc 3a 4c f0 ba 7f 1e 53 bc 19 fe 29 3b
       -0.017985327 -0.0018333264 -0.012885689 0.0025938808
000140 fc bd 13 bc be ef e9 bb a4 bc ea 3a e0 17 33 3c
       -0.009017464 -0.007139175 0.0017909002 0.010930985
000150 5a 6d 02 bc 9f 1c 90 bc 08 fd db 3b ac 05 45 3c
       -0.007960642 -0.017591773 0.0067135133 0.012025278
000160 64 d4 3a 3c eb 9d c0 3a d3 4b 90 3b 15 56 a6 3c
       0.011403177 0.0014695501 0.00440357 0.020304719
000170 dc f3 0b 3c a3 47 b9 3b 9e 57 4b bb 9f 00 64 3a
       0.008542027 0.0056542917 -0.0031027566 0.00086976023
000180 25 c2 03 bb 9c aa 59 3c 8a c1 30 3b c9 d1 4d 3c
       -0.0020104733 0.013285305 0.0026970827 0.012562224
000190 b3 2f 6e 3c d0 ce 7d bc 0f fc b9 3a c4 ae 25 3d
       0.01453774 -0.0154912025 0.0014189499 0.040449873
0001a0 e6 72 91 bb 5b 52 7d ba 6e 35 86 bb c4 ec 0f 3c
       -0.004438746 -0.0009663456 -0.004095725 0.008784477
0001b0 4b 7a 8c 3b a0 1c aa 3c 68 96 5a 3c 70 05 42 3c
       0.0042870394 0.020765603 0.013341524 0.011842117
0001c0 16 46 ea 39 1b 03 3e bc 01 97 8d 3c 9e 12 02 3b
       0.00044684176 -0.01159742 0.017283918 0.0019847522
0001d0 48 9a 22 3a 07 d8 4e 39 bf 21 9b 3c d0 13 91 3b
       0.0006202799 0.00019726167 0.01893699 0.0044274107
0001e0 7f 2a 10 3d e2 9b 20 3b 9b 74 ae 3c be de 9e 39
       0.035196777 0.0024506976 0.021295836 0.00030302064
0001f0 74 a1 09 3b 80 86 f8 ba 40 1e 9d 3c 8d e0 12 3c
       0.0021000775 -0.0018960983 0.019179463 0.00896467
000200 22 d1 1c 3c 72 13 0b bb a7 01 10 bc 06 15 4e b9
       0.0095713455 -0.0021221307 -0.008789456 -0.00019653523
000210 bc ac c9 bc 2d ef 62 bc bb f5 ac bc 6a 4a 64 bc
       -0.024618499 -0.013850969 -0.021113267 -0.013933757
000220 44 6a a2 bb 0c f8 45 3c 87 e9 3e bc 95 6f c3 3b
       -0.0049565155 0.012083065 -0.011652357 0.0059642293
000230 18 d6 d3 bb f4 31 ad bc 4c 41 89 bc d9 7d 0c bb
       -0.006464731 -0.021141984 -0.016754769 -0.0021437316
000240 03 57 31 bc 0c b0 ab 3b 9b e1 36 bb 49 34 11 bc
       -0.010823968 0.0052394923 -0.0027905467 -0.008862563
000250 4a 53 46 bb 0a 1c 73 3c 23 00 72 3c e9 8a 1c bb
       -0.0030262046 0.014838228 0.01477054 -0.0023886508
000260 29 8e 09 3c 66 a0 e3 3a 61 3c a0 3a 4d 66 ed bb
       0.00839571 0.0017366528 0.0012225026 -0.007244861
000270 ea a9 ae 3b a8 f2 22 bc 95 f8 87 bb df 14 dd 3b
       0.005330314 -0.009945549 -0.0041495063 0.006746873
000280 44 dd 4c bb 80 62 28 3c bc 1a dc ba 0a cd 29 bc
       -0.0031259814 0.0102773905 -0.0016792635 -0.0103638265
000290 22 3b bd 3c 97 f9 6f 3c fc 02 56 ba fc 64 8e bc
       0.023099486 0.014646909 -0.0008163897 -0.017382137
0002a0 12 95 ae 3b 6f d3 0c 3c e8 00 67 bb a9 b7 80 3c
       0.005327829 0.008595332 -0.0035248343 0.015712576
0002b0 ff 7b e2 bb f4 07 1b bc 3a 4b 9a bc 23 c1 70 3b
       -0.006911754 -0.009462345 -0.018834699 0.0036736212
0002c0 b5 de 26 3c 18 97 e7 bb e9 c7 3d bc fb 88 9e b9
       0.010184933 -0.0070675723 -0.011583307 -0.00030238167
0002d0 c7 2a c7 ba 81 ab ec 3b cc f2 1e bc 08 53 03 3c
       -0.0015195244 0.0072225933 -0.009701442 0.008015402
0002e0 68 15 6c 3c 41 ad 00 3c 25 dd ac b8 b5 ed be b9
       0.0144094005 0.007853807 -8.2427905e-05 -0.0003641673
0002f0 de 9c 1b 3c fc 4d 4f bc 86 d2 23 3b 72 85 97 3a
       0.009497849 -0.01265287 0.0024997308 0.0011560156
000300 4a e8 5c 3b 05 1b d8 3c 38 a1 b0 bb 33 1b 84 ba
       0.003370779 0.026380071 -0.0053903125 -0.0010078907
000310 fc ad 6b 3a 9a 16 ba bb 0d a4 03 3c 79 37 5e ba
       0.0008990464 -0.005678964 0.008034718 -0.0008476894
000320 23 3a 60 3a 86 e8 5d 3b 2d 7b d3 3b 79 f1 68 bc
       0.0008553585 0.0033860519 0.0064538927 -0.014217728
000330 48 09 44 3c 72 34 de 3b c6 3c 2e 3c 2c fd 49 bc
       0.011965103 0.0067811543 0.010634607 -0.012328427
000340 f6 d0 11 bc 3e bf e7 ba 0a 06 76 bc 5b 2b 0f bc
       -0.008899918 -0.0017680896 -0.015016088 -0.008738364
000350 35 94 d2 bb 80 61 95 bb 09 28 86 bc 0c dd 16 bc
       -0.006426359 -0.004558742 -0.016376512 -0.009207975
000360 f4 09 b3 bb a0 f3 92 3c 88 24 8b bc cd 0d 7f 3c
       -0.005463833 0.017938435 -0.016985193 0.015567255
000370 5b 42 1c 3c bb 15 27 bb cc 76 0b 3b 79 b4 36 3b
       0.009537305 -0.002549513 0.0021280525 0.0027878566
000380 c0 c4 db 3b 86 a8 e9 3b 4d 60 35 bc 4d 99 4e bc
       0.006706804 0.0071306853 -0.011070323 -0.012609792
000390 57 c4 45 bc ca cd 60 3a f0 fd ce 3b ec 92 95 bc
       -0.012070737 0.0008575587 0.006316893 -0.018258534
0003a0 44 ef 2f bb 91 d9 d1 ba c4 d0 a8 3b e8 03 4e bb
       -0.0026845494 -0.0016010274 0.00515184 -0.0031435434
0003b0 85 20 aa bb 55 45 a2 bb 87 5d b7 3c 9e 45 0a bc
       -0.005191865 -0.0049521127 0.022383465 -0.00843945
0003c0 57 8c 50 3b 43 d5 2c 3b c1 0d 2d 3c 95 c3 dc 3a
       0.003182193 0.002637223 0.010562361 0.0016842956
0003d0 51 da 83 3b 10 97 bf ba 93 c6 34 bb fc 8a 56 3c
       0.004023828 -0.0014617164 -0.002758418 0.01309466
0003e0 bf 90 67 bc f3 af 9b bb 4c bf 0c bc f4 e7 d8 bc
       -0.014133631 -0.0047511994 -0.008590531 -0.026477791
0003f0 ff 63 94 3c 26 73 ca bb 9a 38 61 bb bf 69 8e 3c
       0.018114088 -0.0061782775 -0.0034366013 0.017384408

main.0.bias f4 [256]
000000 30 87 34 bc c8 47 f1 3b 33 2f 69 3c 50 09 1a 3c
       -0.011018559 0.0073632933 0.014232445 0.009401634
000010 9f 0c 8d 3c 56 3f d2 3c 3c 45 05 3c 96 8b a4 bb
       0.017217932 0.025664967 0.008134183 -0.0050215228
000020 86 e7 a3 3c 59 dc bc bc 33 1e d8 39 af d8 b3 bc
       0.02000786 -0.023054289 0.0004122123 -0.021953909
000030 68 91 e1 3c 95 8e 0d bc 9e 0a 7d 3c 02 90 20 3c
       0.027535155 -0.008639951 0.015444426 0.009799959
000040 d7 f0 d0 3c cf 8f 51 3c 81 84 97 3c 07 4a f0 bb
       0.025505466 0.012790634 0.0184958 -0.0073330435
000050 78 86 a0 3c 27 95 9b 3c 6a a3 61 3c 39 3f 63 bb
       0.01959537 0.01899202 0.013771871 -0.0034675135
000060 22 1d cc bc 4e 6b b6 bc ee d9 b4 3a 4c ea 35 3c
       -0.024916235 -0.022267964 0.0013797858 0.011103224
000070 cb 30 5a 3c 7d ac 9f 3c 44 52 a8 3c 0e 21 6b 3c
       0.013317297 0.019491429 0.02054704 0.014351143
000080 6d 68 8e 3b b1 f2 27 3c 47 aa b4 3c 3e cd 5f 3b
       0.0043459446 0.010250733 0.02205385 0.0034149433
000090 d8 2a 4c 3c 3c 24 06 bc 89 86 00 3c 68 f4 e8 3c
       0.012461387 -0.00818735 0.007844576 0.028436854
0000a0 25 0e 6e 3b 98 cd b2 3b 42 e5 32 ba ee 81 d1 3c
       0.0036324349 0.0054566376 -0.0006824323 0.02557465
0000b0 f0 7b 91 bc dd b0 8b 3c 2b f1 31 3c b8 0c 21 3c
       -0.017759293 0.017052108 0.010860722 0.009829693
0000c0 69 aa 7f 3c 99 78 07 3c 8d c7 08 3d 0e 31 f3 3c
       0.015604594 0.008268499 0.03339343 0.029686477
0000d0 67 50 73 3c 30 d2 6a 3c b6 3d 64 3c cb b1 a6 3c
       0.014850712 0.014332339 0.013930729 0.02034845
0000e0 60 27 01 3d 45 2e 48 3c af be 04 bc 5f 52 81 3c
       0.03153169 0.012218063 -0.008102103 0.015786348
0000f0 37 37 87 3c c4 d1 2c 3c c2 8c a7 bc 03 a9 dc 3c
       0.01650582 0.010548059 -0.02045286 0.02693606
000100 38 bf d4 bb 5c 0c 46 3c 16 a4 96 bc 8f be 8c 3c
       -0.0064925216 0.012087908 -0.01838879 0.01718071
000110 2c 8f f3 bb 1e 5c 81 3c a6 5f b9 b9 e0 f8 1c 3c
       -0.007432839 0.015790995 -0.00035357213 0.009580821
000120 3f 22 b8 bb b7 10 18 3b f2 9f 7c 3c f6 17 ad 3c
       -0.005619317 0.0023203322 0.015418993 0.02112959
000130 c5 83 82 bc 04 86 68 3a 38 84 a5 3c 71 a2 04 3d
       -0.015931973 0.00088700675 0.020204648 0.03238148
000140 a6 4c 28 3a 5a 21 35 3c f1 4d a7 3c 54 50 5b bb
       0.0006420113 0.011055315 0.020422908 -0.0033464627
000150 6e ff 74 3c da c8 c8 bb 97 7b 49 3c 1e 64 0b 3c
       0.014953477 -0.006127459 0.0122975325 0.0085077565
000160 51 6b 40 3c 49 b5 77 3b 65 d2 18 3c 6e 5c 4a bc
       0.011744336 0.0037797263 0.009327506 -0.0123511385
000170 55 b1 95 3c 8a 98 64 3c ac 7a 47 b9 68 c2 83 3c
       0.018273035 0.013952384 -0.00019023818 0.016083911
000180 32 63 89 3c 69 79 dd 3b d6 e9 8a 3c 7b 28 f7 3b
       0.016770933 0.006758858 0.016957205 0.0075426674
000190 93 80 81 3c 86 76 05 bb d2 d3 49 3c 0b 3a 83 bc
       0.01580838 -0.0020364835 0.012318568 -0.016018888
0001a0 2d 78 02 3c 64 df f4 3a 5d 30 09 3d 4f e1 7a bb
       0.007963222 0.0018682298 0.03349339 -0.0038281267
0001b0 b4 c7 d2 bb a1 f5 2c 3c 00 b0 62 bc 29 6e ee bb
       -0.006432498 0.010556609 -0.013835907 -0.0072763157
0001c0 54 51 96 ba d3 a4 2c bc be 39 6c 3c 74 2d 96 3c
       -0.001146833 -0.010537344 0.014418064 0.01833222
0001d0 78 bf 62 3c 72 02 c0 3c 2c f3 23 bc ae ec 9c 39
       0.013839595 0.023438666 -0.010006707 0.0002993098
0001e0 d2 de c3 3c 44 94 60 3c 27 cd a9 bc 18 2f 0b 3d
       0.02390996 0.013707224 -0.020727707 0.03398046
0001f0 9d 30 1b 3c e6 73 58 3c e0 f8 0c 3d fa 46 ad 3c
       0.0094720395 0.013211226 0.034417033 0.021152008
000200 b2 2c 3f 3c 22 15 1e 3c 6d 8a b2 3c 80 59 77 3c
       0.011668371 0.009648593 0.021794522 0.015097022
000210 99 d6 76 3c 8d 7a 83 3c 22 57 95 3b 36 1b 48 3c
       0.0150658125 0.016049648 0.004557506 0.012213519
000220 8f 6d 96 3c ab ea 16 39 69 66 3c 3c 29 2f 08 3d
       0.018362788 0.00014392535 0.011499026 0.0332481
000230 cc fb 05 3d db fa e7 3a d3 89 6b 3c 71 cb a7 3c
       0.032710835 0.0017698662 0.014376122 0.02048275
000240 19 08 21 3d a4 82 49 bc 00 2b 2c 3b ea cf 3b 3c
       0.039314363 -0.012299214 0.0026270747 0.011463145
000250 1f 97 36 3c 04 e1 3b 3c 3d 21 7b bb a2 c6 4d 3c
       0.0111444285 0.011467222 -0.0038319372 0.012559565
000260 94 f1 99 3c 04 8f 40 3c 9d f7 ab 3c d3 39 6d 3c
       0.018791951 0.011752848 0.020992095 0.014479118
000270 de 38 93 3c 3c 70 3f 3b ad 3b e5 bc 2e 05 1f bb
       0.017971452 0.0029211184 -0.027982557 -0.0024264562
000280 a3 16 62 3c 91 92 59 3c f0 f5 7f bb d0 e9 36 3c
       0.013799342 0.013279573 -0.0039056502 0.011164144
000290 88 90 73 bb 2f a0 07 3d 14 75 91 bc 6f 7d ad 3c
       -0.0037165005 0.033111747 -0.017756023 0.021177975
0002a0 ab fa 4a 3c 5f 1a 6d bc 36 8e a2 3c 78 0a 90 3c
       0.012388865 -0.014471619 0.019843202 0.017583117
0002b0 8a 75 07 3c 69 35 aa bc 13 cd 88 3c 9f 4f 15 3c
       0.00826777 -0.020777421 0.01669935 0.009113221
0002c0 e1 1b 80 3c 32 33 90 3c 0a 75 18 3c b3 fc 8b 3c
       0.015638294 0.017602537 0.009305248 0.01708827
0002d0 af 3d 13 bb dd 2b 01 3c 42 c8 33 3c 1b 3c 5e 3c
       -0.0022467186 0.007883993 0.010973038 0.013564135
0002e0 c0 cb 9e 3c e6 2b 5f 3c 29 4e 33 bc 02 f8 25 b9
       0.019384265 0.013621306 -0.010943928 -0.00015828016
0002f0 42 06 ab bb 3d f1 1b 3c 42 2c 42 3c 1d fb 83 bc
       -0.005219252 0.009517965 0.011851372 -0.016110951
000300 3f ab 60 3c c4 0a 16 3c 48 53 58 3c ad e7 82 bc
       0.013712703 0.00915784 0.01320345 -0.015979612
000310 e1 c9 2c 3c bf a6 9a 3b 75 af 7d 39 bc 5b 52 3c
       0.010546179 0.0047195847 0.00024193323 0.012839254
000320 3d 67 90 3c 10 98 f1 bb e1 bd dc bb 76 f3 2a 3c
       0.017627353 -0.0073728636 -0.0067365025 0.010434022
000330 e9 45 b2 bc 40 f6 a9 bc d6 40 bb 3c 1d 0f 59 3c
       -0.021761851 -0.020747304 0.022858065 0.013248232
000340 1f 85 66 3c 4e 36 34 3c f5 c5 39 3c d0 ba 43 3c
       0.0140698245 0.010999275 0.011338701 0.011946395
000350 2f 81 24 bb 92 35 ab 3c de ad 55 3b 1b be 5b 3c
       -0.0025101413 0.020899568 0.0032604854 0.013412024
000360 db 13 cf 3b a8 bf 81 3c 2b 48 69 3c 41 24 8f 3c
       0.0063195056 0.01583846 0.014238398 0.017473342
000370 9f f1 75 3c 35 a3 80 3c 61 15 46 bc f6 de c2 3b
       0.01501122 0.015702823 -0.012090058 0.005946989
000380 7d 04 e8 3c 31 4f 2e bc c1 ba 97 bc 07 a3 83 3c
       0.028322453 -0.010638998 -0.018521668 0.016068948
000390 1e 2e 8c 3c 95 63 a2 3c 6c 4a fd 3c 44 f7 6f 3c
       0.017111834 0.019822875 0.030919276 0.014646355
0003a0 1a d5 85 3c 0d 3f a7 3c 33 db 25 3c b7 a3 22 3c
       0.016336966 0.020415807 0.010123062 0.009926728
0003b0 4d bc 45 3c 67 cc 2a 3c cd 03 89 3c 8d 49 3b 3c
       0.01206882 0.01042471 0.016725445 0.01143111
0003c0 4d 71 ff bb 52 cb 92 3c c2 94 a2 3c 24 da 7e 3c
       -0.007795489 0.017919216 0.019846324 0.015554938
0003d0 5a 67 3b 3c c6 f7 80 3c e8 aa 16 3c f4 0b 16 3c
       0.011438215 0.015743148 0.009196021 0.009158123
0003e0 0a 96 bf 3c 3e 17 13 3c ce 2b 1e 3c 0e 39 43 3c
       0.023386974 0.008977709 0.009653999 0.011915458
0003f0 85 a3 03 3d bf 27 f8 bb f2 25 f4 3a d8 6f 99 3c
       0.032138366 -0.0075730975 0.0018627031 0.018730089

main.2.weight f4 [256, 256]
000000 24 c5 22 3b 3a c8 30 bc 91 4d 81 ba 08 98 0b bc
       0.0024836743 -0.010789925 -0.0009865036 -0.008520134
000010 ea e6 d8 bc 9c 7a be bc 38 f6 e6 3c 2c 7e df ba
       -0.026477296 -0.023251824 0.028193578 -0.0017051152
000020 d5 5f 88 3c 4c 24 6d 3b 5d 41 3b bd 0e c4 d4 3c
       0.016647259 0.0036184965 -0.045716632 0.025972392
000030 e4 50 a7 3c b4 12 9e 3c 5a 23 48 3c eb 0d 0a bc
       0.020424314 0.019296028 0.01221546 -0.00842617
000040 66 08 6b 3c ac 26 ba bc 10 21 a6 3c b6 b0 10 3c
       0.014345264 -0.022723518 0.020279437 0.008831194
000050 7f 77 cc bc b7 c0 95 3b b9 48 fe bb 69 d8 b7 bb
       -0.024959324 0.0045700925 -0.007760134 -0.005610515
000060 e1 91 9c 3c d0 e9 1c 3c e7 df da bb 77 4f 2d bc
       0.01911253 0.00957723 -0.0066795233 -0.010578028
000070 62 46 b5 bc 5f 5d ac bc f7 68 35 bc 67 2d d9 3b
       -0.022128288 -0.021040617 -0.011072389 0.006627727
000080 21 34 0c 3c 71 b2 8f bc 39 86 cb bc 86 c8 34 bc
       0.00855735 -0.017541142 -0.024844276 -0.011034137
000090 d7 63 21 bc da ac 07 ba 3e cc 62 3c 71 36 47 3c
       -0.009850464 -0.0005175598 0.01384264 0.012158976
0000a0 fd 50 3e bc a8 8c 1e 3c 1d 55 2e bd 82 e4 a4 3c
       -0.011615989 0.00967709 -0.04256164 0.020128492
0000b0 fa 2d a2 3a d9 a1 bb 3c bd 87 0b bc 6f bd 3c bc
       0.0012373321 0.022904323 -0.008516249 -0.011519774
0000c0 a0 e6 c8 bc ed 9c a1 bb 03 2e 52 3c 9d b2 7e 3c
       -0.024524033 -0.004932037 0.012828353 0.015545514
0000d0 ba 3f 82 bc 32 8f 5f bc fc d9 15 b8 a4 46 d3 3b
       -0.015899528 -0.01364498 -3.5727382e-05 0.00644763
0000e0 b7 ea 37 3c 16 fe e0 bc 0f 8a 86 bc 53 61 c6 bc
       0.011225394 -0.027464908 -0.016423253 -0.02421633
0000f0 9f 65 09 bd c3 af 08 3c 3e 19 70 3c 99 39 9b 3b
       -0.03354418 0.008342686 0.014654456 0.004737091
000100 90 59 c7 3c 49 7a aa bb 51 4a 9f 39 b7 af 24 3b
       0.024334699 -0.005202566 0.00030382213 0.0025129148
000110 89 2c 32 3c be 1f f5 bb 68 0e 19 bc e4 de bb 39
       0.010874876 -0.0074805906 -0.009341814 0.00035833486
000120 0e 02 6f b9 80 df 0c bc 76 39 49 3b 85 fc c6 ba
       -0.00022793582 -0.008598208 0.0030704415 -0.0015181458
000130 f9 b4 0f bb 7f 89 99 bb 22 7e c6 39 d0 5e ba 3c
       -0.0021927936 -0.0046855803 0.0003785948 0.022750288
000140 89 50 03 3c b1 6e 88 bc 64 ff fe 3b c1 1f f4 3a
       0.008014807 -0.016654344 0.00778191 0.0018625186
000150 36 17 3b 3c 8c 6b f9 3b ab 1f 1b 3c ed b8 09 bd
       0.011419108 0.0076116975 0.009467999 -0.033623625
000160 b2 69 1c 3a fc 85 62 3c eb 67 87 3c 97 3d 97 bc
       0.00059666776 0.01382589 0.016529044 -0.018461986
000170 88 db 3e 3b 52 7d 7e 3c 8d d5 8c 3c 16 9e 01 bd
       0.002912255 0.015532808 0.017191673 -0.031644903
000180 37 89 02 bc e2 34 d6 bc 94 24 ad 3c f6 d3 c1 3a
       -0.007967285 -0.026148263 0.021135606 0.0014787901
000190 c4 a9 63 bc 00 d5 aa bc 72 05 0c bb 30 bc aa 3c
       -0.013895456 -0.02085352 -0.002136555 0.020841688
0001a0 80 30 bf ba 8d 01 2d ba 1c e4 e5 3c ee 5b 4f bc
       -0.0014586598 -0.00065996574 0.028062873 -0.012656195
0001b0 c3 3e 7c bc 11 44 03 3b c4 e3 46 3c ff ed b6 3b
       -0.015395823 0.0020029584 0.0121392645 0.0055825706
0001c0 ae f5 6d bc 0c ce 70 3c 87 92 de bb 5c 97 03 bc
       -0.014523907 0.014697563 -0.0067923698 -0.008031692
0001d0 2a 10 30 bc 7f 3f 57 3a b2 a5 1c 3c 9e c4 d4 ba
       -0.010746041 0.0008211061 0.009560989 -0.0016232913
0001e0 1e ee a2 3c d9 11 21 bc 9a 14 f5 3b bc a4 8b 3c
       0.019888934 -0.009830915 0.0074792625 0.017046325
0001f0 f3 48 ef 3b 10 de 5c 3c cd 0b d4 3c 33 45 01 3d
       0.0073023974 0.013480678 0.025884533 0.031560134
000200 6d 0b 08 bb 00 de f6 bc b4 7a 6c 3b 31 bf 9e 3c
       -0.0020758763 -0.030135155 0.003608388 0.019378277
000210 7e b1 78 bc bc 37 ad 3b b9 6a 2f 3c 44 17 2e bc
       -0.015179036 0.005286185 0.010706597 -0.010625664
000220 2c eb ad bc b0 25 10 bd 0d 35 30 bc 45 e5 0a 3d
       -0.021230303 -0.03519219 -0.010754836 0.033910055
000230 5d 53 49 3d cd 34 4d 3c c7 4b cd bc aa 4a 21 bd
       0.049151767 0.012524796 -0.025060548 -0.039377846
000240 fc 13 8f 3c 0c 4c 06 3c fa 48 64 bb d9 55 c4 3b
       0.017465584 0.008196842 -0.0034833536 0.005991679
000250 81 47 3c bc 88 d6 3d bc 8a 3f 3f bc 28 2d b9 bc
       -0.011491657 -0.011586793 -0.011672864 -0.02260454
000260 9e dc 63 bc 48 ef 6d 3b 88 4f 30 3c 58 61 a5 3c
       -0.01390758 0.0036305953 0.010761149 0.020188019
000270 16 d2 a5 3c 36 0b 44 3c 66 bb 26 3c eb 8b a5 3c
       0.020241778 0.0119655635 0.010176515 0.02020832
000280 d2 66 bf bc c6 22 0f bd f8 d3 71 bb 1f ab 9e bc
       -0.023364458 -0.034945272 -0.0036900025 -0.019368706
000290 c0 32 20 3c 58 70 e4 3c e8 67 88 3c 2c ec 62 3c
       0.009777725 0.0278856 0.016651109 0.013850253
0002a0 cf dc f6 bb 5d 40 01 bc 33 00 9d bc 8c 05 74 bc
       -0.0075336467 -0.007888881 -0.019165134 -0.014893901
0002b0 6b e8 f6 b9 85 7d cd 3a a2 5c d0 b9 ae 1c 9c bc
       -0.0004709394 0.0015677667 -0.00039741868 -0.019056644
0002c0 ff f0 cb 3b bb 71 0d bc 03 1c 09 bc 0c c7 c4 bc
       0.0062237973 -0.0086330725 -0.008368495 -0.024020694
0002d0 3e 98 53 3c 04 a6 c8 bc f5 15 b6 3b 59 4b b8 bb
       0.012914715 -0.024493225 0.0055568167 -0.0056242165
0002e0 6f 72 98 3c 44 d1 a9 3c 56 d9 65 bb 63 33 88 bb
       0.018609254 0.020729668 -0.003507217 -0.0041565164
0002f0 77 92 34 3b 91 76 68 bb d1 21 7d bc 29 42 89 3c
       0.002755312 -0.0035471062 -0.015449957 0.01675518
000300 9e 83 74 3c 2d 7a 69 3b 0f 42 2b ba c9 47 8b 3c
       0.014923958 0.00356258 -0.0006532976 0.017002003
000310 9d 9a 65 bb 9b 3e 23 3c 9a 8b 00 3d 12 e1 5d bc
       -0.0035034784 0.009963657 0.031383134 -0.0135424305
000320 0a ba ab bb 04 04 58 bc cc 90 2c bc 8f 3e 01 bc
       -0.0052406834 -0.013184551 -0.010532569 -0.00788845
000330 e8 e9 fc 3b 98 8c 6a b9 b6 7b 05 3c 7e 79 cd bc
       0.0077183135 -0.00022368354 0.008147171 -0.025082346
000340 f4 f2 bf bc fb 19 b2 3a a2 ed 42 bc ec 76 a8 bc
       -0.023431279 0.0013588065 -0.011897476 -0.020564519
000350 5b 74 10 3c d7 7a df bc 8d 2e 75 3c 60 a6 8e 3c
       0.008816804 -0.027280254 0.014964712 0.017413318
000360 19 e2 b7 39 8f 6c 5c 3c 17 7c 63 bc cb 03 c3 bb
       0.00035072936 0.013453617 -0.013884566 -0.00595138
000370 c1 18 29 3d b6 02 29 bc 11 f7 8b 3b fa 8a 09 3b
       0.041283373 -0.010315588 0.004271396 0.0020987378
000380 bd fe b1 3c c2 3e 1e 3c 03 bc 63 3c 2a 07 24 3a
       0.021727914 0.009658517 0.013899806 0.0006257171
000390 ca c6 e6 bc ed 2f fc bc 73 b9 28 3d 23 35 bd 3b
       -0.028170962 -0.030784572 0.041192483 0.0057741567
0003a0 06 40 ea 3c e5 c5 08 bd 2d 42 7f bc c9 d7 ea 3b
       0.028594982 -0.033391852 -0.015579742 0.007166837
0003b0 32 01 04 3d ab ca d6 bc 46 d9 8b bb 80 0e 90 bc
       0.032227702 -0.026219686 -0.0042678444 -0.01758504
0003c0 e1 e3 90 3c f4 21 18 3c 40 fa 05 3d b7 5c 3c 3c
       0.017686786 0.009285439 0.03270936 0.011496714
0003d0 32 5f 96 bb e8 9b 87 bc 46 da f9 bb a2 11 a0 bc
       -0.004588985 -0.016553834 -0.007624897 -0.019539658
0003e0 4a 44 bb 3c a4 59 18 3d 02 f7 84 bc 78 21 a1 bc
       0.022859711 0.037194863 -0.016231064 -0.01966928
0003f0 d6 65 31 3d 6a a0 03 bb 1f 22 93 3c 43 78 2a 3d
       0.04331001 -0.0020084628 0.017960606 0.041618597

main.2.bias f4 [256]
000000 1d 7a 67 3c 33 68 62 3c dd 8e 43 3c 0a ce 6e 3c
       0.014128235 0.013818788 0.011935917 0.014575491
000010 59 6e a9 3c bb 2b 88 3c d2 0f 83 3c d1 8c 7e 3c
       0.0206825 0.016622415 0.015998755 0.015536503
000020 21 76 a4 3c 80 e8 47 3c 8c 08 3f 3c 3b e7 81 3c
       0.02007586 0.012201428 0.011659753 0.01585733
000030 6d 43 9a 3b 5d 51 8c 3c 9d 70 73 3c 9c 87 39 3c
       0.004707745 0.01712864 0.014858392 0.011323836
000040 93 e9 0a 3c 10 16 69 3c a7 6e 23 3c fe 82 64 3c
       0.00847854 0.0142264515 0.009975112 0.013947247
000050 e5 ab a4 3c 18 27 5d 3c fd 66 7d 3c 67 25 7f 3c
       0.020101497 0.01349809 0.015466449 0.015572882
000060 26 db 11 3c fc 4b 81 3c cc 3b 7f 3c 04 e6 5b 3c
       0.008902347 0.015783302 0.0155782215 0.013421539
000070 07 be 73 3c 31 95 67 3c 9e be 7c 3c e3 66 7a 3c
       0.014876849 0.014134691 0.015426306 0.015283319
000080 7f ce 87 3c 78 ef 58 3c 4a 85 28 3c 7c cf 70 3c
       0.016577957 0.013240688 0.010285685 0.014697906
000090 1b 64 6e 3c 0d 7b 8e 3c 5d aa 51 3c 20 93 53 3c
       0.014550234 0.01739266 0.012796965 0.012913495
0000a0 63 4d 84 3c 42 92 64 3c 90 af 34 3c ca 38 7c 3c
       0.016150182 0.013950886 0.0110281855 0.015394399
0000b0 e5 bc 66 3c 19 b1 6b 3c a0 6e 87 3c 80 4c 41 3c
       0.014083122 0.014385485 0.016532242 0.011798024
0000c0 20 82 67 3c 45 6d 21 3c d6 f9 1d 3c 50 59 aa 3c
       0.014130145 0.009852712 0.009642085 0.02079454
0000d0 9c 97 49 3c 87 1d 78 3c da 12 ad 3b f1 9f 7d 3c
       0.012304213 0.015143759 0.0052817883 0.0154800275
0000e0 3a 7c 53 3c 55 8b 72 3c be ce 77 3c 29 aa 3e 3c
       0.012908036 0.014803727 0.015124975 0.011637249
0000f0 82 d8 83 3c 14 d5 57 3c 63 bd 63 3c 03 19 97 3c
       0.01609445 0.01317336 0.013900134 0.018444544
000100 32 14 4b 3c 48 6d 07 3c 1a 83 92 3b a9 3b 71 3c
       0.012394952 0.008265801 0.004471195 0.014723697
000110 60 6a 7d 3c ac 2a cd 3b 98 68 d4 3b 79 d3 50 3c
       0.015467256 0.0062611904 0.006482195 0.0127457315
000120 02 8a 7c 3c 08 22 8e 3c 0e 9e 9f 3c a3 c8 77 3c
       0.015413763 0.017350212 0.019484546 0.015123519
000130 62 68 3b 3c 4f 95 3c 3c 8d a0 64 3c 3d 19 66 3c
       0.011438461 0.011510207 0.013954294 0.014044103
000140 a8 d6 71 3c 8d 84 6b 3c 47 a4 64 3c fd 50 88 3c
       0.014760651 0.014374864 0.013955182 0.01664018
000150 b6 d8 35 3c f0 7d e2 3b d3 45 98 3c 4f a3 6d 3c
       0.011099031 0.0069119856 0.018587982 0.014504268
000160 c1 b3 86 3c ed 7c 81 3c b2 3c 1d 3c b3 b7 4b 3c
       0.016443135 0.01580664 0.00959699 0.012433934
000170 83 e1 54 3c ae 94 6c 3c 6b 08 27 3c 0b ae 25 3c
       0.012993219 0.014439745 0.010194878 0.010112296
000180 05 12 89 3c c3 22 3c 3c 77 93 59 3c 53 09 7a 3c
       0.016732225 0.011482897 0.013279787 0.015261012
000190 21 08 4b 3c 0c 58 57 3c e4 a6 76 3c 06 d1 81 3c
       0.012392075 0.013143551 0.015054438 0.01584674
0001a0 be 4d a8 3c 7b 34 a1 3c 8e 6b 4b 3c 99 52 61 3c
       0.020544883 0.019678345 0.01241578 0.013752603
0001b0 ce 74 75 3c 28 43 68 3c ba 6d 56 3c 4e 08 61 3c
       0.014981462 0.014176168 0.013087684 0.01373489
0001c0 c7 25 f8 3b 17 26 3c 3c 2b 0d 7a 3c 2f 93 75 3c
       0.007572863 0.011483691 0.015261929 0.014988705
0001d0 f2 f4 53 3c a5 09 73 3c 88 c6 64 3c 44 c7 68 3c
       0.0129368175 0.014833842 0.013963349 0.014207665
0001e0 a9 9f 9f 3c 54 bf 85 3c 28 26 68 3c d1 1e 5c 3c
       0.019485312 0.016326584 0.014169253 0.013435082
0001f0 9b ba 85 3c 7c 80 3f 3c 86 67 78 3c 2b 3e 82 3c
       0.016324332 0.011688348 0.015161401 0.015898785
000200 4d f0 82 3c 08 2c 60 3c f7 2e 2f 3c ea b0 5a 3b
       0.015983725 0.013682373 0.01069235 0.003336961
000210 5e 27 73 3c 0d 65 34 3c 6e 98 6c 3c 8a d5 4e 3c
       0.014840929 0.0110104205 0.014440639 0.012624154
000220 38 3c 4d 3c cc d9 5b 3c 14 d7 7a 3c e9 5d 88 bb
       0.012526564 0.013418626 0.015310068 -0.0041615856
000230 0f 10 91 3c ad ae 60 3c c4 8e 86 3c 60 d0 88 3c
       0.017707853 0.013713521 0.016425498 0.016700923
000240 92 1e 8a 3c 68 79 6e 3c 99 d4 6e 3c 9e ac 12 3c
       0.01686028 0.014555313 0.014577054 0.008952288
000250 c0 5e 4a 3c 27 c1 5a 3c c9 23 6d 3c d9 59 8f 3c
       0.012351692 0.013351715 0.014473864 0.017498897
000260 74 c6 70 3c 96 89 2b 3c 9f 3b ab 3c 2e 5c 7b 3c
       0.014695752 0.010469815 0.020902453 0.015341802
000270 12 54 42 3c bc 93 0b 3c 53 2f 74 3c 56 d3 83 3c
       0.011860864 0.008519109 0.014903861 0.016091984
000280 02 bd 6b 3c 20 23 3c 3c 89 66 6f 3c c7 b9 85 ba
       0.014388325 0.011482984 0.014611849 -0.0010202461
000290 b7 0b 8c 3c 60 01 90 3c 3e d1 8c 3c 62 0c 94 3c
       0.01709543 0.01757878 0.017189618 0.01807231
0002a0 6f 30 88 3c 3e 35 77 3c 30 45 6f 3c 0f ed 63 3c
       0.016624657 0.0150883775 0.014603898 0.0139115
0002b0 9e 79 e9 3b 39 b7 71 3c ca 44 e5 ba 09 cc 3a 3c
       0.0071250936 0.014753156 -0.0017491814 0.011401185
0002c0 4d 81 5e 3c 84 d9 5e 3c db f1 48 3c d9 47 67 3c
       0.013580632 0.013601664 0.012264694 0.014116251
0002d0 65 21 53 3c f8 34 95 3c 1b 64 52 3c 7a 72 87 3c
       0.01288638 0.018213734 0.01284125 0.016534079
0002e0 b8 05 7a 3c f5 3a 9e 3c 2b e2 8a 3c b1 ea 51 3c
       0.0152601525 0.019315222 0.016953548 0.012812302
0002f0 db ba 64 3c d7 f0 70 3c 7c 60 81 3c 5b 63 cd 3b
       0.013960565 0.014705858 0.015793078 0.0062679476
000300 84 74 59 3c df 1c 7c 3c 58 8a 77 3c dc 0c 5a 3c
       0.013272408 0.015387743 0.015108667 0.01330873
000310 97 34 80 3c 29 96 30 3c 48 20 8c 3c 8f c9 56 3c
       0.015650077 0.0107779885 0.017105237 0.013109579
000320 ec 0e 62 3c c0 cf 86 3c 09 90 88 3c 0b f4 81 3c
       0.013797503 0.016456485 0.016670244 0.015863439
000330 cf ab 47 3c 23 5b 97 3b 03 79 7f 3c 07 95 96 3c
       0.012186958 0.0046190186 0.015592816 0.018381609
000340 c6 41 9c 3c 3d 65 63 3c de 6c 66 3c ed e9 a3 3c
       0.019074332 0.013879118 0.014064042 0.020009005
000350 97 fe 50 3c e5 ad 92 3c ce d7 fb 3b 95 49 6b 3c
       0.012756011 0.017905185 0.007685638 0.014360805
000360 8d d9 8d 3c 13 d5 2d 3c 67 2f 5f 3c de b6 6e 3c
       0.01731565 0.010609883 0.013622141 0.014569966
000370 51 12 63 3c 8c 32 8c 3c 3b 5e 5a 3c f8 17 71 3c
       0.013859347 0.017113946 0.01332813 0.014715187
000380 99 a4 59 3c d2 50 78 3c d6 7d 3f 3c 6d cc 5c 3c
       0.013283872 0.015155988 0.0116877165 0.013476473
000390 f3 7e 4c 3c de 00 74 3c 8f 14 8b 3c 36 c5 7b 3c
       0.012481439 0.014892785 0.016977577 0.015366843
0003a0 af c8 78 3c 95 8a 87 3c 9d e0 ee 3b 7e cd 6e 3c
       0.015184565 0.016545573 0.0072899596 0.01457536
0003b0 d6 dd 77 3c b7 fe 78 3c fb 72 89 3c c8 ab 9b 3c
       0.015128573 0.0151974475 0.01677846 0.01900281
0003c0 80 b6 62 3c f1 3f 67 3c ef 1e 7a 3c c0 ba 3d 3c
       0.013837457 0.014114366 0.015266164 0.011580169
0003d0 3b 17 98 3c f5 95 58 3c ca f2 8e 3c 38 2d 54 3c
       0.018565765 0.013219346 0.017449755 0.012950234
0003e0 26 38 8c 3c b1 26 8a 3c db 42 e2 3b b3 3a 84 3c
       0.017116617 0.016864153 0.0069049424 0.016141271
0003f0 12 4b a3 3c 86 e1 4e 3c b7 fa 6c 3c 33 14 a9 3c
       0.019933257 0.012627011 0.014464072 0.020639515

main.4.weight f4 [128, 256]
000000 fc a5 e8 bc 1b 92 84 bc fc 1f c8 bc 4a 2c ec bb
       -0.02839946 -0.01618295 -0.024429314 -0.007207428
000010 39 db 9e 3c 25 eb 6d 3c ca f3 07 3d c5 05 c6 3c
       0.019391643 0.014521395 0.03319148 0.024172673
000020 0c f3 f3 3c 07 28 b5 bc 65 05 fd bb 63 d6 0b 3d
       0.02977898 -0.022113813 -0.0077215903 0.034140002
000030 20 d2 79 bb da d1 2a 3d 6c 8d 35 3d 77 62 34 bc
       -0.003811963 0.041704036 0.044324324 -0.011009804
000040 cd e7 6e bc 53 0b 20 3d 41 f8 a3 bc ef 84 09 3d
       -0.014581633 0.0390733 -0.020015838 0.03357404
000050 25 96 45 3c 38 f0 08 bc ae 98 e0 3c 16 2f 04 3d
       0.012059723 -0.008358054 0.027416553 0.032271467
000060 d8 55 06 bd 83 90 df bc 30 93 e4 3c 9b cc a7 bc
       -0.03279671 -0.027290588 0.027902216 -0.020483306
000070 df 67 9a bc 71 4c c7 3c d2 76 be 3c ec be 23 3d
       -0.018848358 0.024328442 0.023250017 0.039977
000080 da 60 49 3d b2 d2 e6 3c 52 9f 8a bc 8b 58 dd 3c
       0.04916463 0.02817664 -0.016921673 0.02701976
000090 1a 15 60 3d ca 76 d0 bc 97 80 ed 3c 52 49 05 bd
       0.054707624 -0.025447268 0.02899198 -0.032540627
0000a0 69 c7 f2 3c da fb b2 3c 1a 49 15 bd 87 c8 f8 3b
       0.029636102 0.021848608 -0.03644667 0.007592264
0000b0 c3 49 1a 3d ee c4 d4 3c 63 09 c0 bc 4e f8 11 3d
       0.037668 0.02597281 -0.023441976 0.035637192
0000c0 87 0c 33 3c 94 34 8e bc 88 96 cb bc 90 ec 29 3c
       0.01092828 -0.017359056 -0.024852052 0.010371342
0000d0 d2 42 cd 3c a5 00 b5 bc cc d5 3c bc 82 d8 b3 3c
       0.025056276 -0.022095034 -0.0115255825 0.021953825
0000e0 04 56 3f bc 97 be dc bc 81 9d 87 bc 97 78 b0 bc
       -0.011678223 -0.02694635 -0.016554596 -0.021541877
0000f0 b9 fa fd 3c 05 9d 19 bc 9e c3 2c bc d3 c5 db bb
       0.031003343 -0.009375815 -0.010544686 -0.006706932
000100 1d fc bf 3a 61 09 e7 bc b5 61 fa bc bf 22 cd 3c
       0.0014647279 -0.028202714 -0.030564168 0.025040982
000110 ea 6c df 3c 33 3a f1 bc bf 91 aa bc 2a 27 33 bc
       0.027273614 -0.029446697 -0.02082145 -0.01093463
000120 56 95 9c bc 56 65 2c 3d f4 c7 00 3d f7 12 34 3d
       -0.019114178 0.04208883 0.03144069 0.0439634
000130 bc 9a 9b bc 6a 7a 8e bc 01 40 08 3d 21 11 14 bd
       -0.018994682 -0.017392356 0.033264164 -0.036149148
000140 f8 75 d6 bc 99 d8 f6 bc dc a7 54 3c a8 bc 10 3d
       -0.026179299 -0.030132579 0.012979474 0.035336167
000150 3f bf dd bc b7 e1 85 bc 09 4d ff 3c a0 fe 37 bc
       -0.027068732 -0.01634298 0.031164663 -0.011230141
000160 68 e6 0a 3d fa 9d 16 3d 36 5c bc bc ce fc 5c bc
       0.03391114 0.036771752 -0.022993188 -0.013488008
000170 36 d9 94 3c 0f c2 ae bc e2 60 c8 bc 64 5f be bc
       0.01816998 -0.021332769 -0.02446026 -0.023238845
000180 1a 00 ed 3c 9d f7 be bc ed 8e 93 bc 66 fb 16 3d
       0.028930712 -0.02331143 -0.018012488 0.036860846
000190 97 4e b3 bc b2 df ac bc 5f d4 d1 3c be 47 25 3d
       -0.02188806 -0.02110276 0.025613962 0.04035162
0001a0 85 8a bf 3c 37 57 9e 3c bc a7 3f bc b6 6f ef bc
       0.023381481 0.019328697 -0.011697706 -0.029228073
0001b0 ad 3d c5 bc 88 bc 87 bc 5a 6f 28 3d d4 42 1b 3d
       -0.02407726 -0.01656939 0.041121818 0.03790553
0001c0 32 1e 3a bc 39 ab b8 bc f9 2a b6 bc 8d df 04 3d
       -0.011359738 -0.022542583 -0.022237288 0.032439757
0001d0 73 98 82 bc b3 80 56 3d 0c 1d ca bc 71 3d 0d 3d
       -0.015941834 0.05236883 -0.024672054 0.034482423
0001e0 45 d1 a5 3c 7b 90 2e 3d ea d0 36 bc 35 82 c0 bc
       0.020241389 0.042618256 -0.011158207 -0.023499588
0001f0 81 06 02 3d 2e 52 a7 3c 3b 62 da bc 79 d2 c6 bb
       0.031744484 0.020424929 -0.026658168 -0.0060675708
000200 56 18 bb 3c a0 c4 cf bc 27 89 0d bc d7 d4 40 bc
       0.022838753 -0.025362313 -0.008638657 -0.011769495
000210 f5 07 d9 bc 3c 21 1b bd c2 6a b1 bc ad ae 81 bc
       -0.026493052 -0.03787349 -0.021657351 -0.015830362
000220 49 7c 8e bc 36 e3 44 bc 5b f5 c7 3c d3 64 16 bd
       -0.017393248 -0.012017062 0.024408987 -0.036717247
000230 0a 66 a9 3c db d5 c2 bc af ca ed 3c 30 09 d8 3c
       0.020678539 -0.023783615 0.029027311 0.026371568
000240 5b d0 c9 3c 62 a7 f9 3c b9 99 e0 bc a1 c8 f5 bc
       0.024635484 0.030475322 -0.02741705 -0.030002894
000250 82 66 2c 3d e2 f1 86 bc 88 7b d7 bc 4e 21 8a 3c
       0.042089947 -0.01647276 -0.026304021 0.016861584
000260 83 42 97 bc a5 43 8b bb d4 1d d4 3c ec c8 e3 3c
       -0.018464332 -0.004250007 0.02589313 0.027805768
000270 ad dc ea bc 4f 92 75 bc 5d 44 ac bc 1a ae 23 3d
       -0.02866968 -0.014988496 -0.021028692 0.039960958
000280 fe 2e 06 bc 7f 2a ce bc 08 57 f5 3c f3 aa d1 bc
       -0.008189915 -0.025166748 0.029948726 -0.02559421
000290 c8 18 c0 bc a0 a4 db bc ff 8a 39 3d 16 f6 a5 bc
       -0.023449317 -0.026811898 0.045298573 -0.020258944
0002a0 31 09 e2 3c bb 92 26 3d 3c 78 05 3d bf 7e b3 bc
       0.027592273 0.040667277 0.032585368 -0.021911023
0002b0 4c 84 b3 bc 50 9e 31 3d b9 8f 9d bc 6b 28 0b 3d
       -0.02191367 0.04336387 -0.019233571 0.033974092
0002c0 45 7d 49 bc 27 52 af bb 85 d0 98 bc fb d3 92 3b
       -0.012297933 -0.0053503695 -0.018654117 0.0044808364
0002d0 1e ab 40 bc 6c ba bf 3c d2 f8 d3 3c 1c 55 01 3d
       -0.0117595475 0.023404323 0.025875483 0.031575307
0002e0 af f0 d3 3c d6 6e 3f bd 1e fe 83 3c 81 07 08 3d
       0.025871603 -0.04673656 0.016112383 0.03321028
0002f0 e3 c7 81 bc d3 c6 fa 3c 88 15 bd bc ef 72 01 bc
       -0.015842384 0.030612385 -0.023081556 -0.007900937
000300 e1 be da bc 67 1d 5a bc e6 06 bc bc 4e 75 f7 3c
       -0.026702346 -0.013312674 -0.022952508 0.030207302
000310 38 f8 f0 3c f9 8b b2 bc c3 c3 4b bc 1b ea 84 bc
       0.029415235 -0.02179526 -0.01243681 -0.016224911
000320 a0 53 22 3d 44 f2 fb 3c 94 5d b5 3c aa 98 05 3d
       0.039630532 0.03075517 0.022139348 0.032616295
000330 00 97 dd 3c 33 88 a5 bc 6d 2c 8d bc 39 02 a1 3c
       0.027049541 -0.020206546 -0.017233098 0.01965438
000340 e2 77 4d 3c ba da b7 3c c6 e8 c5 3c 25 e1 c0 3c
       0.012540789 0.022443164 0.024158847 0.023544857
000350 40 57 95 bc c5 66 ac 3c 25 7c f3 bb b8 a4 18 3d
       -0.01823008 0.021045098 -0.0074305707 0.037266463
000360 95 d6 0d 3d 73 75 6f bc 62 0e 93 bc d6 e9 53 bc
       0.03462847 -0.014615404 -0.017951194 -0.012934169
000370 1e 20 b6 3c 7f 3d 55 3d 8a 33 f8 bc 06 a7 0a 3c
       0.022232112 0.0520606 -0.030298013 0.008462673
000380 34 dc f8 bc de 59 ae 3c 76 bd e6 bc 88 27 fe 3c
       -0.030378439 0.021283086 -0.028166514 0.03102471
000390 c9 17 19 3b 39 66 8e bc f6 23 c4 3c 78 a5 cd 3c
       0.0023360124 -0.017382728 0.023942929 0.025103316
0003a0 7b 61 42 3d c2 f6 02 3c e5 b5 8b bc a8 9c 1a 3d
       0.047456246 0.007993402 -0.017054508 0.037747055
0003b0 d0 5e 18 3d f0 77 c6 bc 87 fb ed 3c c4 e8 f2 3c
       0.037199795 -0.024227113 0.029050602 0.029652007
0003c0 82 5d a9 3c 6a e2 88 3c 38 e6 1f 3d 92 2a 48 bc
       0.02067447 0.016709525 0.039037913 -0.012217181
0003d0 4b b5 c1 3c b2 dc 20 3d a3 0c ce 3c 26 bf a2 bc
       0.023646018 0.03927297 0.02515251 -0.019866537
0003e0 e2 c9 31 3d 00 4c cf 3c 21 6b dd bc fc bf 8a 3c
       0.04340542 0.025304794 -0.027028622 0.016937248
0003f0 70 c3 ea 3c a0 79 d0 3c 42 f9 f2 3c f1 d2 a0 3c
       0.028657645 0.02544862 0.029659871 0.019631835

main.4.bias f4 [128]
000000 dc e9 73 3c 4a 4d 86 3c 0c c4 0f 3c bd 3c f7 3b
       0.014887299 0.016394276 0.008774769 0.0075450824
000010 50 31 86 3c eb e2 85 3c bb d1 25 3c 01 80 80 3c
       0.016380936 0.016343554 0.010120804 0.015686037
000020 ae 7c 21 3c 4c 4b 86 3c 75 86 86 3c 7d 27 88 3c
       0.009856386 0.016393326 0.016421536 0.016620392
000030 59 e3 1f 3c 4c 1c 82 3c d7 0d 09 3c c5 57 85 3c
       0.009758794 0.015882634 0.008365116 0.016277203
000040 d3 11 2b 3c 35 e8 18 3c b8 a8 15 3c 1e 2f 29 3c
       0.010441261 0.009332706 0.009134464 0.010326175
000050 55 8d 1d 3c 4e 7a 37 3c 69 c1 89 3c a1 9f 88 3c
       0.009616216 0.011198593 0.016815858 0.01667768
000060 41 82 15 3c 85 6b 88 3c f0 e2 82 3c 68 d2 87 3c
       0.009125293 0.016652832 0.015977353 0.016579822
000070 cf 64 28 3c 8e d6 87 3c d9 d5 87 3c 3d c9 16 3c
       0.010277941 0.0165818 0.016581463 0.009203252
000080 e5 60 8b 3c 5a 1a 02 3c a7 b2 13 3c 35 3e 80 3c
       0.017013976 0.007940853 0.009014762 0.015654663
000090 ee 8d 13 3c 1c cc 87 3c aa 97 1c 3c ad ea 08 3c
       0.009006007 0.01657682 0.009557644 0.008356732
0000a0 07 af 06 3c 04 0a 87 3c f4 ce 80 3c 25 2a 7f bc
       0.008220441 0.016484268 0.015723683 -0.015574013
0000b0 96 7e 05 3c 1c 73 26 3c 28 d5 87 3c 1c 4c 12 3c
       0.008147856 0.01015928 0.016581133 0.008929279
0000c0 27 10 14 3c 5e be 88 3c 15 c2 75 3c e5 79 14 3c
       0.009037054 0.016692337 0.014999886 0.009062265
0000d0 3d d4 0d 3c 37 7e 09 3c 0f 79 84 3c 77 44 0f 3c
       0.008656559 0.008391908 0.016171006 0.008744351
0000e0 c8 66 04 3c 45 98 88 3c b5 25 87 3c 43 3d 1c 3c
       0.008081146 0.01667417 0.016497472 0.00953609
0000f0 a7 10 30 3c dd c4 1e 3c 75 34 1f 3c 94 41 14 3c
       0.010746158 0.009690491 0.009717097 0.009048838
000100 8f d2 85 3c 6b ef 86 3c 0f 3f 2f 3c 58 64 1f 3c
       0.016335754 0.016471585 0.010696187 0.009728514
000110 27 69 89 3c 0e 57 10 3c 73 63 18 3c 32 c6 8c 3c
       0.016773773 0.008809818 0.009301054 0.01718435
000120 f4 b1 83 3c 80 17 16 3c 78 bb 81 3c 52 78 80 3c
       0.016076066 0.009160876 0.015836462 0.015682373
000130 0a fe 8b 3c 53 71 88 3c 92 d7 8a 3c c6 a2 25 3c
       0.017088909 0.0166556 0.016948495 0.010109609
000140 24 29 31 3c 0b 4d 24 3c 8d 7f 31 3c e4 15 0b 3c
       0.010813031 0.010028134 0.010833633 0.008489106
000150 f2 42 85 3c 87 9f 22 3c 9f d1 86 3c f4 bf 77 3c
       0.016267274 0.00992573 0.016457377 0.015121449
000160 80 06 89 3c 91 a9 85 3c 71 2b 86 3c e1 9f 87 3c
       0.016726732 0.016316207 0.016378136 0.016555728
000170 b7 17 f7 3b 37 d0 82 3c 27 9c 84 3c f4 d1 86 3c
       0.007540669 0.015968425 0.01618774 0.016457535
000180 6f 7e 24 3c fb fe 89 3c 1c 18 8d 3c 53 cd 84 3c
       0.01003991 0.016845217 0.01722341 0.016211187
000190 54 74 82 3c c6 b6 31 3c 8f 09 83 3c 22 df 86 3c
       0.01592461 0.010846799 0.015995769 0.01646382
0001a0 f3 59 1a 3c f7 bd 84 3c 37 53 8e 3c 8e d4 1f 3c
       0.00942086 0.016203864 0.017373664 0.009755267
0001b0 00 cb 76 bc 87 9f 84 3c e5 c6 89 3c 9d b4 09 3c
       -0.015063047 0.01618935 0.016818473 0.008404878
0001c0 5a 8e f5 3b 24 87 89 3c 5c 36 83 3c 98 ea 78 3c
       0.0074937763 0.016788073 0.016017132 0.01519265
0001d0 4f 1c 0e 3c 47 13 88 3c 87 13 23 3c 2b e8 2a 3c
       0.0086737415 0.016610755 0.009953386 0.01043133
0001e0 64 1f 17 3c d9 c5 18 3c 8b 0c 8a 3c b2 75 16 3c
       0.009223793 0.009324514 0.016851684 0.009183334
0001f0 22 6a 81 3c fc 9d 87 3c 92 a5 8a 3c b7 66 19 3c
       0.015797678 0.016554825 0.016924653 0.009362868
