model_ckpt/ckpt0_discriminator_unrolled.pt (torch, 656900 bytes, 10 tensors)

label_embedding.weight f4 [18, 18]
0	0x3ffd58fd	1.9792782
1	0x3fbb027a	1.4610131
2	0x3f6dd302	0.929001
3	0xc0059507	-2.087221
4	0x3f29bb59	0.66301495
5	0xbfa40906	-1.2815254
6	0xbda8f723	-0.082502626
7	0xbfc82783	-1.5637058
8	0xbf2cf55e	-0.675619
9	0x3fd19f5f	1.6376761
10	0xbe9fcc3d	-0.3121051
11	0xbfafb62b	-1.3727468
12	0xbf46e2f3	-0.7769005
13	0xbf010a0a	-0.50405943
14	0xbf40c108	-0.7529454
15	0x3f4303e0	0.7617779
16	0x3fdbbf5d	1.7167774
17	0xbdb74396	-0.08948438
18	0xbef04e75	-0.46934858
19	0x3eeb5aa3	0.45967588
20	0xbf46779b	-0.77526253
21	0x3f8db0c4	1.106957
22	0x3f53e47b	0.8277051
23	0x3fdae582	1.710129
24	0x3f9afdf5	1.2108752
25	0x3fa853c8	1.3150568
26	0x3f27211d	0.652849
27	0x3fae8624	1.3634686
28	0xbe4b4bcd	-0.19853134
29	0x3bafa627	0.005360383
30	0xbe8c2409	-0.27371243
31	0x3f63b42f	0.88946813
32	0xbfb55ea2	-1.4169505
33	0xbf5e1401	-0.86749274
34	0xbda88275	-0.08228008
35	0x3fe5595a	1.7917893
36	0x3ec2fae2	0.38082033
37	0xbefd24c7	-0.4944212
38	0x3ece8357	0.4033458
39	0xbf2a5487	-0.6653523
40	0xbfd40a33	-1.6565613
41	0x3f6d452f	0.9268369
42	0xbf5cbd29	-0.86226135
43	0xbef85cd0	-0.4850831
44	0xbfa15e02	-1.2606814
45	0x400537a1	2.0815203
46	0xbf965a20	-1.1746254
47	0xbee46ec6	-0.44615763
48	0xbf846d8f	-1.0345935
49	0xbf2e6e47	-0.6813702
50	0x3e00af48	0.12566864
51	0x3ee53d15	0.44773164
52	0xbee6cf35	-0.4507996
53	0x3f8b0849	1.0861903
54	0xbf2c8a8d	-0.6739891
55	0xbf4b2daa	-0.7936655
56	0xbfa999ac	-1.3250022
57	0x3e097b33	0.13425903
58	0xbdec7d08	-0.11547285
59	0x3f221fe5	0.6332992
60	0xbe2f5ff9	-0.17126454
61	0x3fe7c215	1.8106104
62	0xbf92cbf5	-1.1468493
63	0x3fa9906a	1.3247197
64	0x3fc3fb1d	1.5311009
65	0x3f63004a	0.88672316
66	0x40074c62	2.114037
67	0x3eff613a	0.49878865
68	0x3eca8f6d	0.3956255
69	0xbe7de7ef	-0.24795507
70	0xbf6507a9	-0.89464813
71	0x3fb01200	1.3755493
72	0xbcfbcd34	-0.030737497
73	0x3f15fe2a	0.5859095
74	0x3d323d72	0.04351563
75	0x3f040c02	0.5158082
76	0x3f2af3f7	0.6677851
77	0xbf1730d7	-0.590589
78	0xc019d191	-2.403416
79	0xbf4bc5fd	-0.7959898
80	0xbda8f593	-0.082499646
81	0xbea3da61	-0.32002547
82	0xbfab325c	-1.3374743
83	0xbf2ed823	-0.6829855
84	0x3ee64a68	0.44978642
85	0x3f02d7d5	0.51110584
86	0x3f89baed	1.076017
87	0x3dc27608	0.09495169
88	0x3f7a8188	0.978539
89	0xbe829120	-0.25501347
90	0xbf8d37c2	-1.1032641
91	0x3f241d1b	0.6410691
92	0xbfe7d9cd	-1.8113343
93	0xbf5e11ed	-0.867461
94	0x3fb5945f	1.4185904
95	0x3f053ef6	0.52049196
96	0xc030a34d	-2.759967
97	0x3f35e40e	0.7105111
98	0x3f5ece7c	0.8703382
99	0x3d9b4883	0.0758219
100	0x3f30c167	0.6904511
101	0x3f1d076c	0.6133945
102	0x3f8d4009	1.1035167
103	0xbe5122b0	-0.20423388
104	0xbe7cfc1e	-0.2470555
105	0x3f564262	0.8369504
106	0x3f416c4e	0.75555885
107	0x3e93c9ce	0.28864902
108	0x3e4f5cff	0.20250319
109	0x3fa621c5	1.2979056
110	0xbd354f87	-0.044265296
111	0xbea3dbcb	-0.32003626
112	0xbfb838b1	-1.4392301
113	0xbdc91479	-0.09818358
114	0xbefe0466	-0.4961273
115	0x3f0b138b	0.54326695
116	0x3f3bb037	0.7331576
117	0x3de74f11	0.112943776
118	0xbee1ea8f	-0.44124267
119	0x3f0342d9	0.51273876
120	0x3d3d6f11	0.0462485
121	0x3e7e113d	0.24811263
122	0x3dcf0874	0.10109034
123	0x3f496243	0.7866556
124	0x3f8507ea	1.039304
125	0x3e8994ec	0.2687143
126	0x3f7f6026	0.99756086
127	0x3e3d7187	0.18500338
128	0x400bdde7	2.1854188
129	0x3f9cac9a	1.2240174
130	0xbfd17ff1	-1.636717
131	0xbfa6bf25	-1.3027083
132	0xbeb499dc	-0.35273635
133	0x3fde2472	1.7354872
134	0x3f58c331	0.8467284
135	0x3eb3136d	0.34975758
136	0x3fb02259	1.3760482
137	0x3e3dd156	0.18536887
138	0xc004361b	-2.0658023
139	0x3f84dae8	1.0379305
140	0xbe8988b9	-0.26862124
141	0x3f5f5048	0.87231874
142	0xbee09362	-0.43862444
143	0x3f4adcd6	0.7924322
144	0xbf6a827b	-0.9160535
145	0x3f75a201	0.95950323
146	0x3fcf8405	1.6212164
147	0x3fb6e97a	1.4290001
148	0x3e8b8408	0.2724917
149	0xbe5ea292	-0.21741703
150	0xbf38d7bc	-0.72204185
151	0x3d97e4a9	0.0741666
152	0x3eb2c48c	0.34915578
153	0x3f7668d9	0.96253735
154	0xbedf1e82	-0.43577963
155	0x3fc9b36a	1.5757878
156	0xc01e81f6	-2.4766822
157	0xbeec424a	-0.46144325
158	0xbf951398	-1.1646605
159	0x3f4dc90d	0.80384904
160	0xbfe94600	-1.8224487
161	0x3e56620d	0.20935841
162	0xbcbefddc	-0.023314409
163	0xbe9da46f	-0.30789515
164	0x3e7c70d5	0.24652417
165	0xbf49bb9b	-0.7880189
166	0x3e43e90b	0.19131868
167	0xbf881756	-1.0632122
168	0xbfc67730	-1.5505123
169	0x3faad0ca	1.3344967
170	0x3fa45266	1.2837646
171	0x3db53a0f	0.088489644
172	0xbfc9c952	-1.5764563
173	0x3f392acf	0.72330946
174	0x3f520b47	0.8204846
175	0x3ff81980	1.9382782
176	0x3d317f49	0.04333428
177	0x3e241cd1	0.16026618
178	0xbf570e90	-0.84006596
179	0xbe81762e	-0.25285476
180	0xbf7334d4	-0.95002484
181	0xbfd8baf7	-1.6932057
182	0xbf8b5e9d	-1.0888249
183	0xbf0bafec	-0.5456531
184	0xbf2299fb	-0.63516206
185	0xbfd2b3ab	-1.646108
186	0xbffcbfa5	-1.9745985
187	0x3db16f02	0.08663751
188	0x3f94ddb4	1.1630158
189	0xbf1fd633	-0.6243622
190	0x3f3d8187	0.7402577
191	0x3f5e6193	0.86867636
192	0x3fdda304	1.7315373
193	0xbf6ed8e1	-0.9329968
194	0x3f87d200	1.0610962
195	0xbecabece	-0.39598697
196	0xbf95b250	-1.1695042
197	0x3eaf2e76	0.34215134
198	0x3edbc635	0.42924657
199	0x3fa83ff7	1.314452
200	0x3f08a9c0	0.5338402
201	0x4009e8b8	2.154829
202	0xbf12607e	-0.57178485
203	0xbf7e7f48	-0.99412966
204	0x3e28b8ac	0.16476697
205	0x3f8681a9	1.0508319
206	0x3fa65c52	1.2996924
207	0x3eecf8f9	0.462837
208	0xbf54ee40	-0.8317604
209	0xbf776d8c	-0.9665153
210	0xbef0f2f6	-0.47060364
211	0xbf0d7e34	-0.55270696
212	0x3e539a74	0.20664388
213	0x3ec60cf9	0.38681772
214	0xbe681ba5	-0.22666796
215	0xc01da58d	-2.4632294
216	0xbec2d320	-0.380517
217	0x3f8c8063	1.097668
218	0xbfe8ac57	-1.8177594
219	0x3fcd111d	1.6020848
220	0x3eaaa7b9	0.33331087
221	0xbf0a85a7	-0.5411019
222	0x3f800bba	1.0003579
223	0x3fea0b30	1.8284664
224	0x3cebd114	0.02878622
225	0x3fd96a16	1.69855
226	0x3e4fdba0	0.20298624
227	0xbf885e56	-1.0653789
228	0xbf20c8b0	-0.62806225
229	0x3e4da7b5	0.20083506
230	0x3ed829ca	0.42219383
231	0x4003d7f1	2.060055
232	0x3de4f23a	0.111790136
233	0xbf5d47d1	-0.8643771
234	0xc00a8715	-2.1644948
235	0xbf896faf	-1.0737208
236	0xbd3d13c9	-0.046161447
237	0x3c5bcc73	0.013415444
238	0x3e3bf375	0.1835459
239	0x3ec884e4	0.39163888
240	0xbf6174ce	-0.88068855
241	0x3e7311bf	0.23737238
242	0xbf04c7d2	-0.518674
243	0x3f022125	0.50831825
244	0xbf719677	-0.94370216
245	0x3c4055fb	0.011739249
246	0xbe82713c	-0.25477016
247	0x3fc15e86	1.5106971
248	0x3fa67b2b	1.3006338
249	0xbf25206d	-0.645026
250	0x3f3dfede	0.7421702
251	0x3e8cf2c6	0.2752897
252	0x3ef172f8	0.47158027
253	0x3f22015a	0.6328331
254	0x3edb4e5e	0.42833227
255	0x3dd95282	0.1061144

main.0.weight f4 [256, 218]
0	0x3c85fb24	0.016355105
1	0x3bf7ea9e	0.0075658103
2	0x3c30eb21	0.010798247
3	0x3c01ebae	0.007929726
4	0xbc44d10b	-0.01201273
5	0xbbe81723	-0.0070828362
6	0x3b2b2ef7	0.0026120523
7	0x3c344fb2	0.011005329
8	0x3c0820f2	0.008308636
9	0xbcd45e3d	-0.025923843
10	0xbc840022	-0.016113345
11	0xbc67039f	-0.014099984
12	0xbcb4fec7	-0.022094144
13	0xbc3f2852	-0.011667328
14	0xb93b7e65	-0.00017880795
15	0xbbdab67c	-0.006674586
16	0x3bce71eb	0.006300201
17	0x3c13aeea	0.009013871
18	0x3c836db4	0.016043521
19	0xbc9856aa	-0.018596012
20	0xbc5fadc2	-0.013652267
21	0xbbc0f4b9	-0.005888548
22	0x3c08bb60	0.008345455
23	0xbb1f5bfe	-0.0024316306
24	0x3b8c6e59	0.0042856154
25	0x3c11a9e9	0.008890607
26	0x3c2e7424	0.010647807
27	0x3a30fe7e	0.00067517895
28	0x3955681b	0.00020352045
29	0xba2d0241	-0.0006599762
30	0xbbaab8ca	-0.005210017
31	0x3c2d0fbd	0.010562834
32	0xbb45e6bb	-0.003019734
33	0x39e61589	0.00043885063
34	0x3bd581cc	0.006515717
35	0xbc6b160a	-0.014348516
36	0xbc8fecca	-0.017568965
37	0x3c91b9c8	0.017788783
38	0x3c531710	0.0128839165
39	0x3c7bd358	0.0153702125
40	0xbb599db9	-0.0033205582
41	0x3bf5ca8e	0.007500953
42	0xbbf2a2ca	-0.00740466
43	0x3bed8bfd	0.007249354
44	0xbc1020f8	-0.008796923
45	0x3a4bf8c3	0.0007780904
46	0x3b964726	0.0045861183
47	0xbc1e1501	-0.009648562
48	0x3b4b98f7	0.0031066516
49	0x3c771c29	0.0150823975
50	0x3c01e09c	0.007927086
51	0xbcae2132	-0.021256063
52	0xbc16d5ba	-0.00920623
53	0x3b80a8d6	0.003926377
54	0xba14d118	-0.00056769093
55	0x3a90345e	0.0011001935
56	0x3c41f590	0.011838332
57	0x3c654435	0.013993313
58	0x3c217422	0.009854348
59	0x3c8cc483	0.017183548
60	0x3c3f0946	0.011659926
61	0x3c23b6ee	0.009992344
62	0x3b07394a	0.0020633512
63	0xbbdeb47e	-0.0067964187
64	0x3c3448ba	0.0110036675
65	0xbc3c7c34	-0.011504222
66	0x3bcfaf6c	0.0063380506
67	0x3a2f03d7	0.00066762924
68	0x3b744540	0.0037272722
69	0xba34e4ab	-0.0006900529
70	0x3bed0cfb	0.0072342134
71	0x3b7f9495	0.0038998474
72	0x3bf81f1d	0.0075720684
73	0xbb020d21	-0.0019844251
74	0xb96703c2	-0.00022031277
75	0xbb021452	-0.0019848538
76	0xbbf37929	-0.007430215
77	0xb9481ff4	-0.0001908539
78	0xbcc40afd	-0.02393102
79	0x3bf16db2	0.007367813
80	0x3b903253	0.0044005304
81	0x3b822650	0.0039718524
82	0xbc8d3299	-0.01723604
83	0x3c15134e	0.009098841
84	0xbc8cd980	-0.017193556
85	0xbc952399	-0.01820545
86	0x3b93e9ac	0.00451394
87	0x3b2fa905	0.0026803624
88	0x3bcf949c	0.0063348543
89	0xbc195adb	-0.009360041
90	0xbaa04420	-0.0012227334
91	0x3cd2bfbf	0.025726197
92	0x3c48a1be	0.012245594
93	0x3bb6381d	0.0055608884
94	0xbba244a9	-0.0049520326
95	0x3bad8185	0.005294981
96	0xbb2b6b76	-0.002615658
97	0x3ba91063	0.005159424
98	0x3a938ec6	0.001125776
99	0x3c3ea88a	0.0116368625
100	0x3c84c5e7	0.016207648
101	0xbbde1361	-0.0067772125
102	0xba78a58d	-0.0009485118
103	0x3d111dbf	0.03542876
104	0xbb794e5d	-0.0038041093
105	0xbc19de09	-0.009391316
106	0xbb9f0297	-0.0048526037
107	0xbbeeb875	-0.0072851726
108	0x3c89758c	0.016779684
109	0x3c63f2ef	0.0139129
110	0x3c3843fd	0.011246678
111	0x3c9c0efd	0.019050116
112	0x3bb28c8a	0.0054488825
113	0xbc280cac	-0.010256927
114	0x3ca17af7	0.019711955
115	0x3b82eb3e	0.003995328
116	0xbc2a494a	-0.01039345
117	0xbbafb476	-0.005362089
118	0x3c7b343e	0.01533228
119	0x3b2f6b91	0.0026766995
120	0x3c6dbb28	0.014509954
121	0x3ab44a81	0.0013755114
122	0x3c39dd0f	0.011344208
123	0xbc9253d7	-0.017862244
124	0x3b8b32ac	0.004247984
125	0x3af97b28	0.0019033896
126	0x3c0442cd	0.008072567
127	0x3bc95d47	0.0061451527
128	0x3bf2d151	0.0074102064
129	0x3c026368	0.007958271
130	0xbc1b0e1f	-0.009463816
131	0x3b931fbf	0.0044898684
132	0xbc981546	-0.018564831
133	0xbc2365f5	-0.009973039
134	0xbc88e7a1	-0.016712012
135	0xb9a1f144	-0.0003088807
136	0xbc28cded	-0.010303003
137	0x3c518fea	0.012790659
138	0xbc57fe4b	-0.013183187
139	0x3bcad24c	0.00618962
140	0xbbb6f822	-0.005583779
141	0xbcd4e7c2	-0.025989417
142	0xbc7d0ec5	-0.015445416
143	0xbadfc4ec	-0.0017072237
144	0xbc41282f	-0.011789366
145	0xbb1654d3	-0.0022938743
146	0xbbb3e77f	-0.005490243
147	0xbc7d9488	-0.015477307
148	0xbc2f0c4c	-0.010684084
149	0x3c186aaa	0.009302774
150	0x3c7cbe8f	0.015426292
151	0xba89c5f9	-0.0010511271
152	0xba1bd42e	-0.0005944398
153	0x3c5ec3b6	0.013596466
154	0x378683cc	1.6035418e-05
155	0xba2f2d7b	-0.00066824973
156	0x3c994b33	0.018712616
157	0xbc425c45	-0.011862819
158	0xba6eb313	-0.00091056636
159	0x3c27e1bf	0.010246693
160	0xbc14d4f2	-0.009083973
161	0x3c8d01c8	0.017212763
162	0x3b949618	0.004534494
163	0xbbba5983	-0.00568694
164	0x3bbf0b97	0.005830239
165	0x3c96e366	0.018418979
166	0x3c99282b	0.018695911
167	0xbb08813b	-0.002082898
168	0xbba41e58	-0.0050085
169	0x3b144a09	0.0022627136
170	0xbb69d56b	-0.0035680186
171	0x3ce0f160	0.027458847
172	0x3a4167a6	0.00073778105
173	0xbb965445	-0.0045876824
174	0xbb3f24ca	-0.0029166215
175	0xbb95bbd9	-0.0045695123
176	0x3b2fa550	0.0026801415
177	0xbbd37292	-0.006452867
178	0xbc20894a	-0.009798357
179	0xba91b9dc	-0.0011118012
180	0x3b9c3e6d	0.004768184
181	0x3c0b1571	0.008488999
182	0x397d9b92	0.00024185915
183	0x3ca29e30	0.01985082
184	0x3ca4354b	0.020044943
185	0x3c7b5a2c	0.015341323
186	0xba1f92f7	-0.0006087268
187	0x3b50c43f	0.0031855253
188	0xbb9ce0ae	-0.004787526
189	0xbc7393be	-0.014866767
190	0x3b575b2a	0.0032860734
191	0x3b88dc10	0.004176624
192	0x3b6311d0	0.0034648068
193	0x3cfc1301	0.03077078
194	0xbb989d1f	-0.004657402
195	0x3c020b8a	0.007937321
196	0x3c779ebe	0.015113531
197	0x3c0078ab	0.0078412695
198	0x3b8ef2d5	0.004362444
199	0xbbd4e63b	-0.006497172
200	0xbca0edd6	-0.019644659
201	0xbbb50117	-0.0055238116
202	0xbba041f6	-0.0048906757
203	0xbc6b38a5	-0.014356767
204	0x3ccddeee	0.025130715
205	0x3b1b225b	0.00236716
206	0xbc1ee3f1	-0.0096979
207	0xbc77a817	-0.015115759
208	0xbc656c12	-0.014002817
209	0x3b4b7a3e	0.0031048204
210	0xbc5747fc	-0.013139721
211	0xba313a2c	-0.00067606824
212	0xbb7b9324	-0.0038387263
213	0x3baf6b8f	0.005353398
214	0xb9a290c2	-0.000310069
215	0x3a807604	0.0009800796
216	0x3bb3cb6d	0.0054868967
217	0x3c25c2f5	0.010117282
218	0xbcbfe2ed	-0.023423636
219	0x3c0bef73	0.008540976
220	0x3b46afa5	0.0030317095
221	0xbab02637	-0.0013439123
222	0x3c2c2621	0.0105071375
223	0xbb81abe2	-0.0039572576
224	0x3b96b109	0.004598741
225	0x3b522e26	0.0032070964
226	0xbb8ef091	-0.004362174
227	0xbbadaece	-0.0053003794
228	0xbc883e46	-0.016631257
229	0xbb5c168d	-0.0033582777
230	0xbaa679ae	-0.0012701058
231	0xbb82b35d	-0.003988667
232	0xba54348b	-0.0008094988
233	0xba05a30c	-0.0005097843
234	0xbab3a748	-0.001370647
235	0xbc05247f	-0.008126377
236	0x3b88ef3e	0.0041789105
237	0xbc0f4cfb	-0.008746381
238	0x3c32d238	0.010914378
239	0xbc00da8d	-0.007864607
240	0x3c54d370	0.012989864
241	0x3b0e6d98	0.0021732803
242	0x3c67a00b	0.014137278
243	0x3c4fa0d2	0.01267262
244	0xbbdc28df	-0.0067187394
245	0xbb864dff	-0.0040986533
246	0xbbaf457a	-0.0053488584
247	0x3cad2915	0.021137754
248	0xbc46dc16	-0.0121374335
249	0xbbcdf797	-0.0062856185
250	0xbb6eb969	-0.003642643
251	0xbcb22259	-0.021744894
252	0x3c64cd99	0.013965034
253	0xbc276f67	-0.0102194315
254	0x3ba8b172	0.0051481063
255	0x3c273b9f	0.010207086

main.0.bias f4 [256]
0	0x3bd35ecc	0.0064505097
1	0x3bd555d5	0.006510476
2	0x3c987b46	0.018613469
3	0x3c3882c6	0.011261648
4	0x3be9065f	0.007111355
5	0xbbd155c0	-0.006388396
6	0x3c82c8ef	0.015964953
7	0x3c57d6cf	0.013173773
8	0x3c2bc5fd	0.010484216
9	0xbc2b80d1	-0.010467724
10	0x3c5f15f7	0.013616077
11	0x3b135441	0.002248064
12	0xbbacc307	-0.0052722725
13	0xba98d047	-0.0011658751
14	0x3c4744bd	0.012162385
15	0xbb0db384	-0.0021621892
16	0x3ca8607c	0.02055382
17	0x3be757a1	0.0070600067
18	0xba9d03c6	-0.0011979274
19	0xbb5b431e	-0.0033456753
20	0xb8c5e658	-9.436597e-05
21	0x3c5ad5b0	0.013356611
22	0xbb8dc451	-0.0043263813
23	0x3a80e04c	0.0009832471
24	0xba521f1c	-0.00080155
25	0xbbe79ad3	-0.007068017
26	0x3c6ba659	0.014382922
27	0x3c76aab5	0.015055348
28	0x3b81bde5	0.003959405
29	0xbb7650b6	-0.0037584729
30	0x3c051ea2	0.008124979
31	0xbb5de3b7	-0.0033857652
32	0x3c0423ef	0.008065208
33	0xba79e02f	-0.0009532002
34	0x3c960818	0.018314406
35	0x3bedb618	0.0072543733
36	0x3c7d3a40	0.015455782
37	0x3ba0d2c0	0.004907936
38	0x3c46bcae	0.012129946
39	0x3b90b4de	0.0044160923
40	0x3b69e269	0.003568793
41	0x3c2f85a8	0.0107130185
42	0xbc2e29f4	-0.01063012
43	0x3c5314c7	0.012883372
44	0xbbbd4dfc	-0.0057771187
45	0xbc72abc8	-0.014811464
46	0x3bd0f575	0.006376917
47	0x3bbd6e2d	0.0057809562
48	0x3c853354	0.016259827
49	0x3c5a5248	0.013325281
50	0xbb491e80	-0.0030688345
51	0x3ca33736	0.019923788
52	0xbb37eb07	-0.0028063671
53	0x3bfe2e9a	0.00775702
54	0x3c46c4aa	0.012131849
55	0xbb2c770e	-0.002631608
56	0x3bc6d122	0.006067411
57	0x3c074ad7	0.008257589
58	0xbb9f1696	-0.0048549874
59	0x3c6adb12	0.014334457
60	0xbc587436	-0.013211301
61	0x3a2390aa	0.0006239513
62	0xba9a2d02	-0.0011762681
63	0x3bc7b2e1	0.006094322
64	0x3c155ed4	0.009116847
65	0x3bbe6f2d	0.005811593
66	0x3c800655	0.01562802
67	0x3a880e7e	0.0010380296
68	0x3c906443	0.017625934
69	0x3c072e56	0.008250793
70	0x3bd23912	0.0064154947
71	0x3c42e16b	0.011894564
72	0x3bfbfd29	0.007690091
73	0xbb524fc3	-0.0032090999
74	0x3c116ca0	0.008875996
75	0x3bb8fca6	0.0056453524
76	0x3bc5bec1	0.0060347025
77	0x3a12556c	0.0005582187
78	0x3c3f514b	0.011677097
79	0x3c84541c	0.016153388
80	0xbc1da291	-0.009621278
81	0x3adf49b7	0.0017035519
82	0xbbdf5a30	-0.006816171
83	0xbc126f76	-0.008937707
84	0x3bf94a18	0.0076077096
85	0xbc031030	-0.007999465
86	0x3c767ab8	0.015043907
87	0x3ca3c497	0.019991202
88	0x3c138b14	0.009005327
89	0x3c2bda34	0.010489035
90	0x3c02a4bb	0.007973845
91	0x3c26553a	0.0101521555
92	0xbaed84ae	-0.0018121207
93	0x3af07a62	0.001834702
94	0x3c2aa43b	0.010415132
95	0xbbd1998e	-0.006396479
96	0xbb23c777	-0.0024990716
97	0xb897cb5a	-7.238118e-05
98	0x3c5fd76a	0.013662199
99	0x3ca87ea1	0.020568194
100	0xbc0b9e3a	-0.008521611
101	0xbb71cfd8	-0.0036897566
102	0xbac48901	-0.0014994444
103	0x3a97cb23	0.0011580925
104	0x3abfeda9	0.0014642972
105	0x3bcd29bc	0.0062610786
106	0x3c436926	0.011926925
107	0x3c77ba08	0.015120037
108	0x3c537a15	0.012907525
109	0x3bdb23cd	0.0066876174
110	0x3c9546c2	0.018222217
111	0x3b007ca7	0.0019605549
112	0x3b8f380e	0.004370696
113	0x3c0efc1e	0.008727102
114	0x3c916138	0.017746553
115	0x3c43a789	0.011941799
116	0x3c62b9e7	0.013838268
117	0x3c3cb2e4	0.01151726
118	0xbb74dc09	-0.0037362596
119	0x3c6f6494	0.014611382
120	0x3c92e84d	0.017933035
121	0x3abb05f6	0.0014268744
122	0xbbb2052a	-0.0054327445
123	0x3ca7d225	0.020485947
124	0x3c06cc52	0.008227425
125	0xbc2808d5	-0.010256012
126	0x3c9a7c5e	0.018858131
127	0x3b9ae678	0.004727181
128	0x3ca6973e	0.02033579
129	0x3bbb4b17	0.0057157385
130	0xbbd93ba8	-0.006629426
131	0xbbd9767a	-0.006636438
132	0x3b95c385	0.004570427
133	0x3bae9b91	0.0053286036
134	0x3bda9880	0.0066710114
135	0x3c3a60fe	0.011375664
136	0x3c0db534	0.008649159
137	0x3c86195d	0.016369516
138	0x3bd232b6	0.0064147366
139	0x3c3f7427	0.011685408
140	0x3c844ab1	0.016148897
141	0x3c464b3f	0.012102901
142	0x3c45c9cb	0.012072037
143	0x3aad6aab	0.0013230642
144	0x3c4655d5	0.012105425
145	0x3c929f55	0.017898241
146	0x3be53983	0.0069953813
147	0x3af65c3f	0.0018795802
148	0x3c0d0d1c	0.008609083
149	0x3c35b411	0.011090294
150	0x3c0f6e35	0.008754303
151	0xba7ab80e	-0.00095641694
152	0x3b09ccea	0.002102668
153	0x3c36eba6	0.011164581
154	0x3c283675	0.01026689
155	0x3c2c5b88	0.01051987
156	0xbbe1f1cf	-0.006895281
157	0x3c1b7248	0.009487696
158	0x3ba9ec50	0.0051856413
159	0x3c82a2ee	0.015946832
160	0x3c47046c	0.01214705
161	0x3c28bf9c	0.0102995895
162	0x3b9dec57	0.0048194337
163	0x3c5e147e	0.01355469
164	0x3c06c43a	0.008225495
165	0xbb9b37ce	-0.004736877
166	0xbaf11e3b	-0.001839585
167	0x3bd6e12f	0.0065576057
168	0x3c3ad9f5	0.011404504
169	0x3b968c2d	0.004594347
170	0x3bcd48c6	0.006264779
171	0x3c39c381	0.011338116
172	0x3c455ab0	0.012045547
173	0xbbc603f4	-0.0060429517
174	0x3c22a6e8	0.009927489
175	0x3ba1d217	0.0049383747
176	0x3b3991d8	0.002831569
177	0x3c174899	0.009233617
178	0x3c8363f4	0.016038872
179	0x3c2a302a	0.01038746
180	0x3b91ddbb	0.004451481
181	0xba94a80b	-0.0011341585
182	0x3c838a37	0.016057117
183	0x3c3ae401	0.011406899
184	0xbbd5ca7d	-0.0065243826
185	0xbb47a854	-0.0030465322
186	0x3c668271	0.014069186
187	0x3bd100c4	0.006378265
188	0x3c0c0ea4	0.0085484125
189	0x3c4c4783	0.012468222
190	0x3c9c671a	0.019092131
191	0x3c687602	0.0141882915
192	0x3c1cd187	0.00957144
193	0x3c53eaed	0.012934429
194	0x3c623440	0.013806403
195	0x3c24c894	0.010057587
196	0x3c23a9bf	0.009989201
197	0x3c907288	0.017632738
198	0x3b8ba6cb	0.0042618266
199	0x3c14fb4b	0.009093116
200	0x3bb2c2c6	0.0054553477
201	0xba7c773e	-0.00096308056
202	0xbc195478	-0.009358518
203	0x3c3d7e1b	0.01156571
204	0xb8f832c8	-0.0001183502
205	0x3c0dfff8	0.008666985
206	0x3c838d00	0.016058445
207	0x3c0fc4bc	0.0087749325
208	0x3c5e0158	0.013550125
209	0x3c02dfec	0.007987957
210	0xbbc8c889	-0.0061274213
211	0xbb86cba2	-0.0041136304
212	0xbbc2b56e	-0.0059420383
213	0x3c83de19	0.016097115
214	0x3b83b830	0.0040197596
215	0x3c0cad12	0.008586185
216	0x3c10b105	0.008831267
217	0xbae96ee0	-0.0017809533
218	0x3c3ed3eb	0.011647205
219	0x3c94be44	0.018157132
220	0x3c5f89b6	0.013643673
221	0x3c6cdce0	0.014456958
222	0x3c0dc5c4	0.008653108
223	0x3b1e5972	0.00241622
224	0xbb97832b	-0.0046237907
225	0x3a3db69c	0.0007236989
226	0x3be2fb4e	0.0069269305
227	0x3bb00a6c	0.005372336
228	0x3bb78352	0.0056003714
229	0x3b90279a	0.004399252
230	0xbc4e9b9e	-0.012610344
231	0x3c076b48	0.008265324
232	0x3c97a064	0.018509097
233	0x3ca4aa88	0.020100847
234	0x3c4a1e95	0.012336393
235	0x3c50883d	0.012727794
236	0x3bd04104	0.0063554067
237	0xbb9d4b69	-0.0048002494
238	0x3c1806b2	0.00927894
239	0xbb8fec7e	-0.0043922057
240	0xbc3564bb	-0.011071379
241	0x3c2d3815	0.010572453
242	0xbb5f07b6	-0.0034031696
243	0x3a1edb68	0.0006059916
244	0x3c61d734	0.013784219
245	0xbb1a3985	-0.002353282
246	0x3c30253f	0.010751068
247	0x3c878715	0.016543904
248	0x3bc21a9f	0.0059235836
249	0x3aba400f	0.0014209765
250	0x3b234d72	0.0024917987
251	0x3c9a6bd2	0.01885024
252	0xba076fd7	-0.0005166507
253	0xba6d99b6	-0.0009063737
254	0x3b1e595c	0.002416215
255	0x3bc9c9c1	0.006158084

main.2.weight f4 [256, 256]
0	0x3c427cc5	0.011870568
1	0xbce17a13	-0.02752403
2	0x3cc0e11e	0.023544844
3	0xbbb59f08	-0.0055426396
4	0xbc99c263	-0.018769449
5	0xbc1b479f	-0.009477525
6	0x3cf261f6	0.029587727
7	0x3c3a7fcf	0.011383011
8	0x3ca85c95	0.020551959
9	0x3b8c5dd0	0.0042836443
10	0xbce907bf	-0.028446076
11	0x3ce9917e	0.028511759
12	0x3b78000b	0.0037841822
13	0x3c8a53a4	0.016885586
14	0x3c35cf6c	0.0110968165
15	0x38b98cea	8.847735e-05
16	0x3c40a2ac	0.011757534
17	0x3c962713	0.018329179
18	0xba976ecf	-0.0011553409
19	0x3c03598c	0.008016955
20	0x3c01f95c	0.007932987
21	0xbbd21d4c	-0.006412184
22	0x3c203ec9	0.009780594
23	0x3ad001ae	0.0015869641
24	0x3c99d235	0.018776992
25	0x3c1de9e5	0.009638284
26	0x3c4234a7	0.011853374
27	0x3c032fee	0.008007033
28	0xbbafcada	-0.005364758
29	0x3b1ed193	0.0024233803
30	0x3b1e52be	0.0024158205
31	0x3c96a8f7	0.018391116
32	0x3be49381	0.0069755916
33	0x3b6e8123	0.003639289
34	0xbbfb097a	-0.007661042
35	0xbc0a39ac	-0.008436602
36	0x3ba709bf	0.0050975974
37	0x3c2cd170	0.010547981
38	0x3c989714	0.018626727
39	0xbc7b231e	-0.015328197
40	0xbb8f4f6c	-0.0043734815
41	0x3c3997a7	0.011327661
42	0xbc7d56ab	-0.015462558
43	0x3bb070fb	0.005384562
44	0xbb574aae	-0.003285091
45	0x3c27bc5c	0.0102377795
46	0xbb04e8d3	-0.0020280376
47	0x3bb93ce9	0.005653013
48	0xbce6afcc	-0.028159998
49	0xbccb41a1	-0.024811568
50	0x39e41716	0.0004350475
51	0x3bfd41cd	0.0077287913
52	0xb958bc16	-0.00020669433
53	0xbc3f0486	-0.011658793
54	0x3a9f5333	0.0012155533
55	0x3cf3f060	0.029777706
56	0x3af161b3	0.0018415957
57	0xbc97fd9e	-0.018553551
58	0x3c46b98c	0.012129199
59	0xbc46881d	-0.012117413
60	0xbbeb0294	-0.007171938
61	0xbb214e8c	-0.0024613468
62	0x3c7dca88	0.015490182
63	0x3a42a0fa	0.00074245
64	0x3cba1236	0.022713762
65	0x3a43ec3f	0.0007473863
66	0x3c059662	0.00815353
67	0x3bc9b328	0.0061553903
68	0x3cbabc18	0.022794768
69	0xbb81dbaa	-0.0039629536
70	0xbbbfa810	-0.005848892
71	0x3acc2f80	0.0015578121
72	0x3bb13af5	0.0054086396
73	0xbb6dc43b	-0.0036280293
74	0x3cb70b0d	0.022344137
75	0x3c7c4b72	0.015398847
76	0x3bae3793	0.0053166836
77	0xbb635ee7	-0.0034694017
78	0x3a3396b2	0.00068507635
79	0x3ba97574	0.005171472
80	0x3c55430b	0.013016473
81	0xb95aa759	-0.00020852442
82	0x3c4edbc9	0.012625643
83	0x3b37db76	0.0028054393
84	0x3b0697cc	0.0020537255
85	0x3c455d66	0.012046194
86	0x3c88732d	0.016656483
87	0xbb5358c3	-0.003224895
88	0x3cb8361b	0.022486737
89	0x3bb2252b	0.0054365597
90	0x3c65559b	0.013997461
91	0xbc221119	-0.009891772
92	0xbbccd265	-0.006250667
93	0x3c5e55ea	0.013570288
94	0x3c0ccba4	0.008593474
95	0xbbe6d4f3	-0.0070444285
96	0xbb2716df	-0.002549581
97	0xbb9e5968	-0.0048324354
98	0x3c5ae48f	0.013360157
99	0x3ba19958	0.00493161
100	0x3bf3470d	0.0074242414
101	0x3abb9953	0.0014312662
102	0x3c088508	0.008332498
103	0x3ca536cd	0.020167733
104	0xbb8a8741	-0.0042275493
105	0xba89c6a3	-0.0010511469
106	0x3c1fc4dd	0.009751526
107	0x3c1bfb9a	0.009520436
108	0xba1d24a4	-0.00059945346
109	0xbbc2eff0	-0.005949013
110	0x3cabbf25	0.020965168
111	0x3c33bab6	0.010969808
112	0xbbdea159	-0.0067941365
113	0x3c928de3	0.017889922
114	0x3afe6ba2	0.0019410739
115	0xbaf95f20	-0.0019025542
116	0x3af3e6ef	0.0018608252
117	0xba9ba4ae	-0.001187464
118	0x3c2e8749	0.010652372
119	0x38ab03db	8.1546335e-05
120	0x3c870fa4	0.01648695
121	0x3c47c45b	0.012192811
122	0x3bb4b5f7	0.005514856
123	0xbc9a6a12	-0.018849406
124	0x3b82c78c	0.003991073
125	0x3b671db7	0.0035265514
126	0x3c0246d1	0.007951454
127	0x3c8d72af	0.0172666
128	0x3aa2ad41	0.0012411253
129	0xbc8651ff	-0.01639652
130	0x3c2463f7	0.010033599
131	0x3abedc78	0.0014561554
132	0xbc144f18	-0.009052061
133	0x3c355a51	0.011068896
134	0x3c4e4a48	0.012590952
135	0x3bdccec1	0.006738514
136	0xbc9f6edd	-0.019462043
137	0xbcc63900	-0.024197102
138	0xbbf4aac0	-0.007466644
139	0x3c723c59	0.014784896
140	0x3d1b640b	0.037937205
141	0x3c8635fe	0.016383167
142	0xbc9bdae2	-0.01902527
143	0xbc458ee8	-0.012057997
144	0x3c1118b1	0.008855985
145	0x3b6e7205	0.003638388
146	0xbaba7b8b	-0.0014227493
147	0xbb073ea8	-0.0020636711
148	0xbc513323	-0.01276854
149	0xbb369687	-0.0027860717
150	0xba4082de	-0.00073437195
151	0xbc4530ab	-0.012035529
152	0x3c1bb22e	0.009502931
153	0x3a749f37	0.0009331586
154	0x3b3fc3ea	0.002926106
155	0x3c8ca292	0.017167363
156	0x3be621c5	0.0070230686
157	0x3c10d7ef	0.008840545
158	0xbb8b67ad	-0.0042543025
159	0x3bcbf006	0.0062236814
160	0xbbb332a3	-0.005468683
161	0xbb6b6953	-0.0035920932
162	0xbc8c7a70	-0.017148226
163	0xbc962b07	-0.018331064
164	0x3ca3ea8a	0.020009298
165	0x3c106098	0.008812092
166	0x3c7091ad	0.014683169
167	0x3baf611d	0.005352153
168	0x3bcd2a07	0.0062611136
169	0xb82a6eea	-4.0634455e-05
170	0x3b2e5f83	0.0026607222
171	0xbaf65ea3	-0.0018796514
172	0x3cad1bb0	0.021131366
173	0x3a11d358	0.00055628037
174	0x3b944edd	0.004526003
175	0xbc34f44f	-0.011044576
176	0x3b6e3d2b	0.0036352377
177	0xbc2ffa9b	-0.010740901
178	0xbc3ee885	-0.011652117
179	0xbbff24bc	-0.0077863615
180	0x3c882592	0.016619477
181	0xbd0b0338	-0.033938617
182	0xbc80148e	-0.015634801
183	0xbbf67684	-0.0075214524
184	0x3b6328d5	0.003466179
185	0x3b925216	0.004465352
186	0xbc180268	-0.009277917
187	0x3b075cf3	0.0020654767
188	0x3b089940	0.0020843297
189	0x3c5ff892	0.013670104
190	0xbbc0b1b0	-0.005880557
191	0x3cbea77d	0.023273224
192	0x3c879699	0.016551303
193	0x3b9494bd	0.0045343325
194	0x3bd0c5cf	0.006371237
195	0x3b90bbd9	0.0044169244
196	0xbac815b7	-0.0015265261
197	0x3caab838	0.020839795
198	0x3c919c77	0.017774804
199	0xbc98fd58	-0.018675491
200	0xbc77f826	-0.015134847
201	0xbccb81f9	-0.02484225
202	0xbc105989	-0.008810409
203	0xbb140ab5	-0.002258939
204	0x3bd35e53	0.0064504533
205	0x3c0b3913	0.008497494
206	0x3b5849d1	0.0033002982
207	0xb7c4d902	-2.3466073e-05
208	0xbcf80d59	-0.030279802
209	0x3bcabc45	0.0061869943
210	0x3bc8faf0	0.0061334297
211	0x3b4418e0	0.0029922053
212	0x3c609a20	0.013708621
213	0x3b58c866	0.003307843
214	0x3c3c942a	0.011509934
215	0x3bbccea6	0.005761939
216	0xbb8574d4	-0.004072765
217	0x3cc99265	0.02460594
218	0xbc7bec18	-0.015376113
219	0xbb746e6e	-0.0037297267
220	0x3d03f86a	0.032219328
221	0xbb3a4b7a	-0.0028426335
222	0x3c2b6bc1	0.010462702
223	0xbc5f06fa	-0.013612503
224	0x3c284a84	0.010271672
225	0x3c39a08a	0.011329779
226	0x3c85ed13	0.016348397
227	0xbc112a3b	-0.008860166
228	0xba010e39	-0.0004923079
229	0xbbb9c8bd	-0.005669682
230	0x3ca9eda7	0.020743204
231	0x3c1a98a3	0.0094358055
232	0x3cee35f7	0.029078467
233	0x3b989e50	0.004657544
234	0xbb07341b	-0.0020630423
235	0xba97dd9e	-0.0011586433
236	0x3cbc99a5	0.023022482
237	0xbb04d510	-0.0020268597
238	0xbb9e27de	-0.00482653
239	0x3c4b52a1	0.012409837
240	0x3cada2d9	0.021195816
241	0x3c66170d	0.014043582
242	0x3c992cc7	0.01869811
243	0xbb7246d6	-0.003696849
244	0xbcbe399b	-0.023220828
245	0x3bb6d76f	0.005579881
246	0xbcd62643	-0.026141291
247	0x39663c8f	0.00021957069
248	0x3c0ada64	0.00847492
249	0x3d0530a4	0.03251709
250	0xbc18f428	-0.009335555
251	0x3c695824	0.014242206
252	0x3caa1927	0.020763947
253	0x3c046fe9	0.008083322
254	0x3cd4b0b6	0.025963169
255	0x3d04e30e	0.0324431

main.2.bias f4 [256]
0	0x3c146c13	0.00905897
1	0x3c2af5e0	0.010434598
2	0x3c525624	0.01283792
3	0x3c944a33	0.018101787
4	0x3c193f39	0.009353452
5	0x3c9b2ad2	0.018941317
6	0x3c8cc3d7	0.017183227
7	0x3c85c3f7	0.016328795
8	0x3c8a055c	0.016848259
9	0x3c06a478	0.008217923
10	0x3c1a5a94	0.00942101
11	0x3c9b885f	0.018985925
12	0xbca8188b	-0.020519515
13	0x3bd10945	0.006379279
14	0x3c8b3dbd	0.016997213
15	0x3c2949f6	0.010332575
16	0x3c87d8ee	0.016582932
17	0x3c8c5fcb	0.017135521
18	0x3c9cc828	0.01913841
19	0x3bf60f96	0.007509182
20	0x3bd31485	0.006441655
21	0x3be8c041	0.0071029966
22	0x3c836271	0.016038151
23	0x3c8b290b	0.016987344
24	0x3b99c7c5	0.004693004
25	0x3bcae626	0.0061919866
26	0x3c918e6b	0.017768105
27	0x3c8fba4d	0.01754489
28	0x3bf4f158	0.0074750595
29	0x3c0f77ef	0.008756622
30	0x3c2e25d9	0.010629141
31	0x3c91b7a0	0.017787755
32	0x3c9d4f7f	0.019202946
33	0x3c11a25a	0.008888805
34	0x3c2ca5d5	0.010537584
35	0x3c957230	0.018242925
36	0x3c19faf4	0.009398211
37	0x3c53faa0	0.012938172
38	0x3bf0f035	0.0073528537
39	0xbc89d3d4	-0.01682464
40	0x3c3c2d33	0.011485386
41	0x3bfd6c53	0.0077338605
42	0x3c70b28d	0.014691007
43	0x3c8abfed	0.01693722
44	0x3c2bad8e	0.01047839
45	0x3c86b483	0.016443497
46	0x3c30cd17	0.010791085
47	0x3befcfc3	0.0073184683
48	0x3c2fa719	0.0107209915
49	0x3c1ce9cf	0.009577229
50	0x3c19dce2	0.0093910415
51	0x3c30a118	0.010780595
52	0xbc6bb83e	-0.0143871885
53	0x3c604b03	0.013689759
54	0x3c029a33	0.007971334
55	0x3c95320f	0.018212346
56	0x3c01fad2	0.007933335
57	0x3c1a0817	0.009401343
58	0xbc83d953	-0.01609484
59	0x3c1987f3	0.009370792
60	0x3c879933	0.016552543
61	0x3c174cb8	0.0092346
62	0x3c9c133e	0.019052144
63	0x3c40ba33	0.011763143
64	0x3c142a35	0.009043266
65	0x3c097560	0.008389801
66	0x3c1c0052	0.009521561
67	0x3c89df83	0.016830212
68	0x3c7db99f	0.01548615
69	0xbca54bd5	-0.020177761
70	0x3c22d20b	0.009937773
71	0x3bf0a42d	0.00734379
72	0x3c521c3f	0.012824117
73	0x3c95344f	0.01821342
74	0x3c3ff127	0.01171521
75	0x3c9ca83f	0.019123195
76	0x3c143ca2	0.009047659
77	0x3be4f409	0.006987099
78	0x3c809cad	0.015699709
79	0x3c906ed1	0.017630966
80	0x3c2be7c3	0.010492268
81	0x3bfc6f32	0.007703685
82	0x3b9de259	0.0048182425
83	0x3c096b02	0.008387329
84	0x3c18db8c	0.009329688
85	0x3c071cbf	0.0082466
86	0x3c7655d1	0.015035109
87	0x3c7e0820	0.015504867
88	0x3c688d58	0.014193855
89	0x3c9dd521	0.019266667
90	0x3c2fa6e1	0.010720939
91	0x3c0d8db2	0.00863974
92	0x3bed6e86	0.0072458414
93	0x3c8fb2b9	0.017541276
94	0x3c6630df	0.014049738
95	0x3c257210	0.010097995
96	0x3c87bfa7	0.01657088
97	0x3bf2fcff	0.0074154134
98	0x3c14d8c8	0.009084888
99	0x3c046b01	0.008082152
100	0x3c52055b	0.01281866
101	0x3c17d7a8	0.009267725
102	0x3bce486e	0.0062952554
103	0x3c7d1d20	0.0154488385
104	0x3bda5fd2	0.0066642547
105	0x3c1aa43e	0.009438572
106	0x3c3dc3a6	0.011582291
107	0x3c079489	0.00827516
108	0x3c3b4eae	0.011432333
109	0x3c1c6641	0.009545864
110	0x3c8700ac	0.016479813
111	0x3c24238c	0.010018241
112	0x3bf3c24f	0.007438935
113	0x3bfc11d2	0.007692554
114	0x3c536919	0.012903475
115	0x3c111f97	0.008857629
116	0x3c9b3a68	0.018948749
117	0x3c91e1cd	0.017807866
118	0x3bcd48e7	0.006264794
119	0x3c877b70	0.016538352
120	0x3ca00498	0.01953344
121	0x3c09d7e3	0.008413288
122	0x3c173e20	0.00923112
123	0x3bfb996d	0.007678202
124	0x3c80f1b5	0.015740255
125	0x3c8bf021	0.017082276
126	0x3c127b23	0.008940491
127	0x3c26221f	0.010139971
128	0x3c8cc8d2	0.017185602
129	0x3c21c975	0.009874691
130	0x3be505b4	0.0069892053
131	0x3c9b1180	0.018929243
132	0x3c235708	0.00996948
133	0x3baa5aed	0.0051988275
134	0x3c2d2468	0.010567762
135	0x3c1da9e1	0.009623022
136	0x3c16b627	0.009198702
137	0x3c6dbe6f	0.014510735
138	0x3c938c17	0.018011136
139	0x3c5050c1	0.012714566
140	0x3c7bc813	0.015367526
141	0x3c2e045e	0.010621158
142	0x3c8ba15d	0.017044717
143	0x3b9ef6d2	0.0048512006
144	0x3c800d91	0.015631469
145	0x3c5320b9	0.01288622
146	0x3c398504	0.011323217
147	0x3c2d6f53	0.010585624
148	0x3c3ebe9b	0.011642124
149	0x3c1fd3c8	0.009755082
150	0x3c192213	0.009346503
151	0x3c81891a	0.015812445
152	0x3c5f348e	0.01362337
153	0x3c0d3c83	0.008620384
154	0x3c8e485a	0.017368484
155	0x3c8e590f	0.01737645
156	0x3c05a380	0.008156657
157	0x3c872847	0.016498698
158	0x3c7d37c3	0.015455189
159	0x3c88468d	0.016635204
160	0x3c17fe3d	0.009276924
161	0x3c164b10	0.00917317
162	0x3c2a4c1b	0.0103941215
163	0x3bf16839	0.0073671606
164	0x3c2f9132	0.01071577
165	0x3c92a18a	0.017899293
166	0x3c95c2cb	0.018281361
167	0x3c10da66	0.008841133
168	0x3c0c8e40	0.008578837
169	0x3c8bd734	0.01707039
170	0x3c88cb32	0.016698454
171	0x3c2179ff	0.009855746
172	0x3c8f57f6	0.017497998
173	0x3c18da9b	0.009329463
174	0xbca6dc64	-0.020368762
175	0x3c765efd	0.015037295
176	0x3c76ae1c	0.015056159
177	0x3beeba3f	0.007285386
178	0x3c19341c	0.009350803
179	0x3c2486fa	0.010041947
180	0x3c166b3a	0.009180838
181	0x3c8f399e	0.017483529
182	0x3c83d094	0.016090669
183	0x3c9c2b16	0.019063514
184	0x3c88c085	0.016693363
185	0x3be6323e	0.0070250323
186	0x3c92661f	0.01787096
187	0x3c2b49e2	0.010454627
188	0x3c6cd0ae	0.01445405
189	0x3c1d7f70	0.009612903
190	0x3c85b094	0.01631955
191	0x3be65380	0.007028997
192	0x3c2fd87e	0.010732768
193	0x3c94c41b	0.018159917
194	0x3c0f0bb1	0.008730815
195	0x3c71a00d	0.014747632
196	0x3c7da5f0	0.015481457
197	0x3c156f2c	0.009120744
198	0x3c9ceed5	0.019156853
199	0x3bd1dbd7	0.006404381
200	0x3c86fa3a	0.01647674
201	0x3c8aaf28	0.016929224
202	0x3c8787a9	0.01654418
203	0x3c20c24c	0.009811949
204	0x3c584afd	0.013201472
205	0xbc652426	-0.013985669
206	0x3c270734	0.010194588
207	0x3c430551	0.011903123
208	0x3c80d6d8	0.015727445
209	0x3c587c68	0.0132132545
210	0x3c790c2f	0.015200659
211	0x3c8cf58d	0.017206931
212	0x3c6b3ebf	0.014358222
213	0x3c8f9484	0.017526872
214	0x3c2935f2	0.010327803
215	0x3c870181	0.01648021
216	0x3c8c18e0	0.017101705
217	0x3c05a698	0.008157395
218	0x3c319a67	0.010840035
219	0x3be296af	0.0069149355
220	0x3c0a773c	0.008451279
221	0x3c77bc84	0.015120629
222	0x3c6b5028	0.014362372
223	0x3c92f6f5	0.017940024
224	0xbc99b9da	-0.018765379
225	0x3c73d206	0.014881616
226	0x3c4a2170	0.012337074
227	0x3bf5bd3d	0.0074993656
228	0x3bf7564d	0.0075481297
229	0x3c785c60	0.015158743
230	0x3c194344	0.009354416
231	0x3c2f3bd1	0.010695414
232	0x3c87bf31	0.01657066
233	0x3c06735b	0.008206214
234	0x3beab734	0.007162953
235	0x3c8d2c5e	0.01723307
236	0x3c8ff446	0.017572533
237	0x3bf97683	0.0076130047
238	0x3c1af792	0.009458439
239	0x3bff121e	0.007784142
240	0x3c1ab691	0.009442941
241	0x3c73bcd8	0.014876567
242	0x3c9b77a8	0.018977955
243	0x3c059d6a	0.008155206
244	0x3c9afbf6	0.018918972
245	0x3c0f6b40	0.008753598
246	0x3c87b642	0.0165664
247	0x3c183bbc	0.009291586
248	0x3c90b0d5	0.017662445
249	0x3c93497d	0.017979378
250	0x3c10b209	0.008831509
251	0x3c6abd42	0.014327349
252	0x3c4842f8	0.012222998
253	0x3c7b8e0d	0.015353692
254	0x3c710569	0.014710763
255	0x3c85c944	0.016331322

main.4.weight f4 [128, 256]
0	0xbcd9874f	-0.026553778
1	0xbc9884a8	-0.018617943
2	0xbccf3853	-0.025295412
3	0x3cea0b8e	0.028569963
4	0xbc669c89	-0.014075407
5	0x39bbba0b	0.00035806032
6	0x3ca516b4	0.020152427
7	0x3c504325	0.012711321
8	0x3ce78495	0.028261462
9	0xbcb832d0	-0.022485167
10	0xbc098478	-0.008393399
11	0x3cb314d1	0.021860512
12	0x3ba14cf2	0.0049225027
13	0xbbce538d	-0.006296581
14	0x3d0e698f	0.034768637
15	0xbbb0f971	-0.0054008295
16	0x3c99692a	0.018726904
17	0x3cdd85ca	0.027041335
18	0x3c85dcf3	0.016340708
19	0xbc8a67c5	-0.016895184
20	0xbce199a6	-0.027539086
21	0xbbc02452	-0.0058637047
22	0x3ca7d423	0.020486897
23	0x3cc0bea0	0.023528397
24	0xbced7730	-0.028987497
25	0xbca9caae	-0.020726528
26	0x3c8beefb	0.017081728
27	0x3a13d1e3	0.00056388805
28	0xbc6b93de	-0.014378516
29	0xbcb23762	-0.021754924
30	0xbcd1db54	-0.02561728
31	0x3cef14d4	0.029184736
32	0x3d1038df	0.035210487
33	0xbcb1bef3	-0.021697497
34	0xbc971711	-0.018443616
35	0x3c7200f6	0.014770737
36	0x3c01b124	0.007915769
37	0xbccc7fca	-0.024963278
38	0xbc8bbb10	-0.017056972
39	0xbc99c2f8	-0.018769726
40	0x3c8bf328	0.01708372
41	0xbcb75042	-0.022377137
42	0xbceb9b70	-0.028760642
43	0xbbb6641b	-0.0055661327
44	0xbc80b910	-0.015713245
45	0x3c653c9c	0.013991501
46	0xbcd2dd07	-0.02574016
47	0x3c8b529b	0.017007163
48	0x3c37df08	0.011222608
49	0xbc79c60a	-0.01524497
50	0xbcf44885	-0.029819736
51	0xbcfbc19b	-0.030731967
52	0xbc34dfba	-0.011039669
53	0xbcc8ba2a	-0.024502832
54	0xbc5eb68b	-0.013593326
55	0x3c3ecf0c	0.0116460435
56	0x3ca38a99	0.01996355
57	0xbd036be3	-0.03208531
58	0xba24de65	-0.0006289243
59	0xbcb77319	-0.02239375
60	0x3ca608f8	0.020267949
61	0xbc2b5c40	-0.010459006
62	0x3cb37ef9	0.021911131
63	0xba5f1158	-0.00085093593
64	0x3ab1138c	0.0013509854
65	0xbce4be8d	-0.027922893
66	0xbd03241f	-0.03201687
67	0x3c53f547	0.012936897
68	0x3c60602f	0.013694807
69	0xbcac4bf8	-0.021032318
70	0xbcbc6881	-0.02299905
71	0xbc436c4a	-0.011927674
72	0xbc984f51	-0.018592509
73	0x3cf8f5bb	0.03039061
74	0xbc2e8ace	-0.010653211
75	0x3cd5c0db	0.026092937
76	0xbc9100dd	-0.017700607
77	0xbc869958	-0.016430542
78	0x3ca60f2f	0.020270912
79	0xb9311c45	-0.00016890567
80	0xbcd9e70e	-0.026599433
81	0xbce10102	-0.0274663
82	0xbd07a471	-0.033115808
83	0xbc597749	-0.013273069
84	0xbccb40a4	-0.024811096
85	0xbc9a26bb	-0.018817296
86	0x3ca6948b	0.020334503
87	0x3c9e343b	0.019312015
88	0x3cabe55d	0.020983392
89	0x3cc92a29	0.024556236
90	0xbcc871f9	-0.024468409
91	0xbc3f0f3a	-0.011661345
92	0xbcf8a46a	-0.030351836
93	0x3c7f9227	0.01559881
94	0xbcb2a2a2	-0.021806065
95	0xbc7cde75	-0.015433897
96	0x3c8810b6	0.01660953
97	0xbcd7fffa	-0.026367176
98	0xbca1bfc3	-0.01974476
99	0xbc20a823	-0.009805712
100	0xbcb745f4	-0.022372223
101	0xbca514fb	-0.020151606
102	0xbcb7d56c	-0.022440635
103	0x3cd3b289	0.025841968
104	0xbbea7ad3	-0.007155755
105	0xbcbf2aee	-0.0233359
106	0xbc5fc813	-0.013658541
107	0xbcd3865c	-0.025820903
108	0xbcbdf373	-0.023187375
109	0xbc8ca49e	-0.01716834
110	0x3cf41df8	0.029799446
111	0x3cc5a850	0.02412811
112	0xbc34bb51	-0.011030988
113	0xbcc58df2	-0.024115536
114	0xbc87649a	-0.016527463
115	0xbc810f42	-0.015754346
116	0x3be8a14f	0.0070993076
117	0x3d21e9ae	0.039529495
118	0xbcad53e9	-0.021158176
119	0x3caaf6a9	0.02086957
120	0x3bc1ecbf	0.005918115
121	0xbb91e8a8	-0.0044527836
122	0xbc3b1b08	-0.011420019
123	0xbc91ae57	-0.017783327
124	0x3ca2ede9	0.019888835
125	0x3c1ad4bf	0.009450137
126	0xbcbf6d0b	-0.023367425
127	0xba63db67	-0.0008692056
128	0x3c00f1a3	0.007870111
129	0xbcc177df	-0.02361673
130	0xbbb12957	-0.0054065394
131	0x3ca325e5	0.01991553
132	0xbccb7289	-0.024834888
133	0xbd1c0087	-0.03808644
134	0xbcb0086a	-0.021488387
135	0xbc77bb18	-0.01512029
136	0xbc70f7fe	-0.014707563
137	0xbc5f4c33	-0.013629007
138	0x3c51ff0e	0.012817157
139	0xbd04a6ce	-0.03238564
140	0x3c25d768	0.010122158
141	0xbca58734	-0.020206071
142	0x3c785736	0.015157511
143	0x3c283ab3	0.010267901
144	0x3c2ecd39	0.010669046
145	0x3c99f45e	0.018793281
146	0xbccf5f1e	-0.02531391
147	0xbcff4c96	-0.031164449
148	0x3d02d136	0.0319378
149	0xbc90faac	-0.017697655
150	0xbcd38439	-0.025819885
151	0x3b603470	0.0034210943
152	0x3c9df2b0	0.019280761
153	0xbc06e16c	-0.008232456
154	0x3cb0a923	0.021565026
155	0x3c760fcf	0.0150184175
156	0xbcf24380	-0.029573202
157	0x3cc3fa0e	0.023922946
158	0x3c778259	0.015106761
159	0x3ce780f9	0.028259741
160	0xbbe51b95	-0.0069918134
161	0xbcd6a949	-0.026203768
162	0xbcc0a750	-0.02351728
163	0x3c973e17	0.018462224
164	0xbc97892f	-0.018498031
165	0xbbabef85	-0.005247059
166	0x3d0184d8	0.03162083
167	0xbc8485c2	-0.016177062
168	0xbcb12342	-0.021623258
169	0x3ce13f6d	0.027496064
170	0x3c95d232	0.018288705
171	0xbcb0dfee	-0.021591153
172	0x3cd0e4a1	0.025499644
173	0x3a8e73dc	0.0010868269
174	0xbc8474bf	-0.01616895
175	0x3cc83ab9	0.024442064
176	0x3ccef1f2	0.025261853
177	0xbbc1fcf6	-0.005920048
178	0xbcaba97b	-0.020954838
179	0x3d291451	0.04127914
180	0xbc7e1850	-0.015508726
181	0x3c2919fc	0.010321137
182	0x3c75dd9c	0.015006449
183	0x3c8c535c	0.017129593
184	0x3c5c0b15	0.013430377
185	0xbaf7845b	-0.001888405
186	0x3b87b473	0.0041413843
187	0x3caa3942	0.020779256
188	0xbc906b6d	-0.01762935
189	0xbc9d2fde	-0.019187864
190	0x3bd4521c	0.0064795148
191	0xbbb145ee	-0.0054099476
192	0xbcbd7dfe	-0.023131367
193	0x3c90019e	0.017578896
194	0xbca70131	-0.02038631
195	0x3cab196b	0.020886144
196	0x3ca85549	0.02054848
197	0xbca7f098	-0.020500466
198	0x3c84c6c5	0.016208062
199	0xbc4dd626	-0.012563264
200	0x3cd9f856	0.026607674
201	0x3ca30b96	0.019902986
202	0x3c110f01	0.008853675
203	0xbc4ed002	-0.012622835
204	0x3c87e996	0.016590875
205	0xbbaed3d1	-0.005335309
206	0xbc6f33bb	-0.014599736
207	0xbcaf1385	-0.021371612
208	0x3c80dc4d	0.015730048
209	0xbc8266b3	-0.015918111
210	0x3c45eecc	0.012080859
211	0x3c89a872	0.016803954
212	0x3cb072a4	0.02153904
213	0x3bf9388f	0.0076056193
214	0xbc1b650c	-0.009484541
215	0x3cc513f4	0.024057366
216	0x3cc38243	0.023865825
217	0xbc20ad37	-0.009806923
218	0xbcbb8784	-0.022891767
219	0x3cd7cb0d	0.02634194
220	0x3c0dd75c	0.008657303
221	0x3d251ee5	0.040312666
222	0x3bfd46ce	0.007729388
223	0xbbbfd0d1	-0.0058537503
224	0xbc8a59b4	-0.016888477
225	0x3c5563d9	0.013024294
226	0x3cbba508	0.022905841
227	0xbc61ef43	-0.013789955
228	0x3b3a0b1f	0.0028387976
229	0xbc91647f	-0.017748116
230	0xbcdfc2a0	-0.027314484
231	0xbced43da	-0.028963018
232	0x3d086885	0.033302803
233	0xbd128e73	-0.03578038
234	0xbc7a0ff5	-0.0152625935
235	0x3cd6df1c	0.026229434
236	0x3cb7cbc4	0.02243603
237	0xbc97fa15	-0.018551866
238	0xbc5c79a6	-0.013456738
239	0x3c854ee3	0.016272968
240	0xbcd33302	-0.025781158
241	0x3adb2d3e	0.0016721857
242	0x3cbf3ddd	0.023344928
243	0xbc32f939	-0.010923677
244	0x3c5145d8	0.012773
245	0xbb9db53a	-0.0048128637
246	0x3c5af8c2	0.013364973
247	0xbcb41fd3	-0.021987831
248	0x3cfe1b7c	0.031018965
249	0x3c4fa5ae	0.012673778
250	0xbcf1c55d	-0.029513055
251	0x3ba05b4a	0.004893695
252	0xbc29abb4	-0.010355879
253	0x3c4dd8fe	0.012563942
254	0x3c6944a4	0.014237557
255	0x3a81636c	0.0009871549

main.4.bias f4 [128]
0	0x3c393122	0.011303218
1	0x3c66d565	0.014088963
2	0xbc9a16f9	-0.018809782
3	0x3bae7d0e	0.0053249663
4	0x3c6644b8	0.01405447
5	0x3c5722b8	0.013130836
6	0x3c7e689f	0.015527873
7	0x3c52da09	0.012869366
8	0x3c1e2404	0.0096521415
9	0x3c5d6db9	0.013514929
10	0x3c8d0176	0.01721261
11	0x3c7a2729	0.015268126
12	0x3c983f0c	0.01858475
13	0x3c48f477	0.012265316
14	0x3c21d6ce	0.009877874
15	0x3c8037de	0.01565164
16	0x3c18da5f	0.0093294075
17	0x3bd44d55	0.0064789453
18	0x3c039a9c	0.008032467
19	0x3c19cd7c	0.00938737
20	0x3c27c254	0.0102392025
21	0x3c581e24	0.01319078
22	0x3bfbb828	0.0076818652
23	0x3c80737a	0.015680064
24	0x3c69fe49	0.014281818
25	0x3c77d2b3	0.015125918
26	0x3c5b7c25	0.013396298
27	0x3c2806da	0.01025554
28	0x3c84d18b	0.0162132
29	0x3c24541d	0.01002982
30	0x3c706c97	0.014674327
31	0x3c5dae8c	0.013530385
32	0x3c124cc8	0.008929439
33	0x3b7a1f30	0.0038165562
34	0x3c1b2f26	0.00947169
35	0x3c5c972f	0.013463779
36	0x3bf59440	0.0074944794
37	0x3c68d3aa	0.014210621
38	0x3c66686f	0.014062985
39	0x3be1f583	0.0068957224
40	0x3b9c49f5	0.0047695586
41	0x3c80da97	0.015729232
42	0x3c6a8f5f	0.014316409
43	0xbc8e57a9	-0.017375784
44	0x3bc28668	0.0059364326
45	0x3c13031c	0.008972909
46	0x3c7908b1	0.015199826
47	0x3c32ed9b	0.010920907
48	0x3c0485c6	0.008088535
49	0x3c792f66	0.015209055
50	0xbc549fa4	-0.012977514
51	0x3c16be0f	0.009200587
52	0x3c05ca7e	0.008165954
53	0x3bb7e0d5	0.005611519
54	0x3c65e132	0.0140307415
55	0x3c0267a1	0.007959277
56	0x3bf714bc	0.0075403135
57	0x3c6fc207	0.014633662
58	0x3c6624ea	0.014046887
59	0x3c1a9079	0.009433859
60	0x3c323351	0.010876493
61	0x3bf1f135	0.0073834904
62	0x3c25db95	0.010123153
63	0x3c0a3d9e	0.008437542
64	0x3c6d49dd	0.014482942
65	0xbc8f344d	-0.017480994
66	0x3c28cc98	0.010302685
67	0x3c71fc3c	0.01476961
68	0x3c762199	0.015022659
69	0x3c08f60a	0.0083594415
70	0x3bb2129c	0.0054343473
71	0x3c2f9fb3	0.010719228
72	0x3baf81bc	0.0053560417
73	0x3bfbed29	0.007688184
74	0x3c61762e	0.013761086
75	0x3c567e8c	0.013091695
76	0x3c74cca8	0.014941372
77	0x3c737062	0.014858337
78	0x3c0b5685	0.008504515
79	0x3c3d203b	0.011543329
80	0x3c32a630	0.01090388
81	0x3c101378	0.008793704
82	0x3c3d83f1	0.011567102
83	0x3bd2c505	0.006432178
84	0x3c50634e	0.012718989
85	0x3c209873	0.009801972
86	0x3c66ee91	0.014094965
87	0x3c6df9ab	0.0145248575
88	0x3c7f1ebf	0.015571295
89	0x3c660746	0.01403982
90	0x3c37d910	0.011221185
91	0x3beed5c8	0.0072886683
92	0x3c0f406d	0.008743388
93	0x3c5a7061	0.013332457
94	0x3c733062	0.014843078
95	0x3c6d5692	0.014485972
96	0x3c22db5e	0.0099399965
97	0x3c61c357	0.013779483
98	0x3c88044f	0.016603617
99	0x3c673500	0.014111757
100	0x3c78349c	0.015149262
101	0x3c3f3755	0.011670907
102	0x3c5985d0	0.013276532
103	0x3c7cbfaf	0.01542656
104	0x3bf46570	0.0074583814
105	0x3c67939c	0.014134314
106	0x3c318e19	0.010837101
107	0x3c7902d2	0.015198426
108	0x3b66a74a	0.0035194927
109	0x3c4bfa19	0.012449765
110	0x3c5441e7	0.0129551655
111	0x3bbe99f6	0.0058166934
112	0x3b869a2a	0.0041077333
113	0x3c8b17bc	0.01697909
114	0x3c58a08a	0.013221869
115	0x3c377fa9	0.01119987
116	0x3ba5ae47	0.005056176
117	0x3c640ff8	0.013919823
118	0x3c12176e	0.008916719
119	0x3c85d72e	0.016337957
120	0x3bf9c472	0.007622295
121	0x3c05de36	0.008170655
122	0x3c84314b	0.016136786
123	0x3bd0285f	0.006352469
124	0x3c4ec1b4	0.012619425
125	0x3c6fee40	0.014644206
126	0x3c8257c6	0.015910994
127	0x3c23843f	0.00998026
