model_ckpt/ckpt694_discriminator_.pt (torch, 656900 bytes, 10 tensors)

label_embedding.weight f4 [18, 18]
000000 f3 81 f5 3f ed 60 bf 3f fa 76 64 3f 82 25 07 c0
       1.9180282 1.4951454 0.89244044 -2.1116643
000010 29 9d 2f 3f 73 f7 9e bf 7f 00 51 bd e5 4d cc bf
       0.6859918 -1.2419266 -0.051025864 -1.5961272
000020 cc 85 3e bf b1 11 d4 3f 14 d7 cb be a7 aa b2 bf
       -0.7442291 1.6567899 -0.3981253 -1.3958329
000030 d0 4a 3c bf cf 19 0d bf 3c f6 42 bf 47 37 45 3f
       -0.73551655 -0.55117506 -0.76156974 0.7703747
000040 41 2b d3 3f 66 56 1b be bf 56 01 bf 9c a5 e5 3e
       1.6497575 -0.15169677 -0.5052299 0.44852912
000050 8e 32 44 bf 38 3e 8a 3f a3 e4 4e 3f de 7d d6 3f
       -0.7663964 1.0800238 0.8081762 1.6757162
000060 b6 9f a2 3f 8b e4 a6 3f 33 49 1e 3f 50 ff ab 3f
       1.270499 1.3038496 0.61830443 1.343729
000070 c4 9d 76 be 58 4d 4b 3d a8 00 86 be bc 2d 5e 3f
       -0.2408362 0.049634308 -0.26172376 0.86788535
000080 1d 2a b0 bf 6f aa 5c bf 97 e7 5a be 23 f1 dc 3f
       -1.3762852 -0.8619756 -0.21377407 1.7261089
000090 06 c6 9e 3e 82 d4 d5 be c6 ac 98 3e 66 fd 46 bf
       0.31010455 -0.41763693 0.29819316 -0.77730405
0000a0 35 d2 c6 bf 46 9b 7c 3f af ec 62 bf 58 57 17 bf
       -1.55329 0.9867443 -0.886424 -0.5911765
0000b0 d6 bf a1 bf f1 4c 08 40 9e d3 9e bf 32 78 f6 be
       -1.2636669 2.1296961 -1.240833 -0.48138577
0000c0 6c 27 6b bf e8 6d 26 bf 4e e6 ac 3d 21 65 08 3f
       -0.9185703 -0.65011454 0.08442365 0.5327931
0000d0 89 ad f6 be cd 31 99 3f d0 6d 52 bf 8c dc 39 bf
       -0.48179272 1.1968323 -0.8219881 -0.7260215
0000e0 a2 a2 b4 bf af ba 11 3d 5e 9b 66 bd ad 74 2a 3f
       -1.4112132 0.035578426 -0.056300513 0.66584283
0000f0 8a f4 da bd 50 05 ed 3f c7 bb 96 bf 5f 3b b2 3f
       -0.106911734 1.8517246 -1.1776055 1.3924369
000100 22 d1 b7 3f 22 fd 5c 3f b4 8b 0d 40 6f 04 08 3f
       1.4360697 0.8632375 2.2116518 0.53131765
000110 30 53 b6 3e 89 89 40 be 86 90 85 bf bf 9c a4 3f
       0.35610342 -0.18802465 -1.043473 1.2860335
000120 29 92 38 be 19 37 08 3f c9 2a 47 3d 0c f4 d9 3e
       -0.18024506 0.5320907 0.048624787 0.42569005
000130 df 1e 15 3f aa 39 26 bf 70 c3 0d c0 15 79 3e bf
       0.5825023 -0.6493174 -2.2150536 -0.74403507
000140 76 e7 95 3c aa 21 a9 be 04 b7 ac bf 38 d4 13 bf
       0.018298846 -0.33033496 -1.3493352 -0.57745695
000150 41 e8 06 3f f7 5a 08 3f ca 1c 93 3f ed f9 74 3d
       0.5269814 0.532638 1.1493161 0.05980866
000160 7c b7 40 3f 4d 41 f2 be 46 63 87 bf 1c 92 1c 3f
       0.75279975 -0.47315446 -1.0577171 0.61160445
000170 40 5b dd bf 43 0f 53 bf f8 64 ab 3f 7f 78 f1 3e
       -1.7293472 -0.8244516 1.3390188 0.47162244
000180 c4 10 21 c0 97 7c fd 3e c8 90 4a 3f b8 6f 15 3d
       -2.5166483 0.49509117 0.7912717 0.036483496
000190 cc d8 22 3f 3b ca 16 3f 45 79 88 3f db 71 e2 be
       0.63612056 0.5890233 1.0662009 -0.4422749
0001a0 46 c8 37 be 14 8c 42 3f db 70 d2 3e 4a 59 3d 3e
       -0.17947492 0.7599499 0.41101727 0.18491092
0001b0 4a c2 84 3e 7e 31 a3 3f 7f 3f a1 bb b4 00 99 be
       0.2592948 1.2749479 -0.0049208994 -0.2988335
0001c0 d9 e1 b9 bf f0 2a db bd af 11 1a bf 8a 35 f6 3e
       -1.4522048 -0.10701549 -0.60183233 0.48087722
0001d0 2b 8a 3a 3f 4f 81 c0 3d fc 4e c8 be 37 b6 07 3f
       0.7286708 0.09399664 -0.3912276 0.5301241
0001e0 f2 fd 56 bc 34 c5 79 3e e2 ea 09 3e 16 5b 44 3f
       -0.013122069 0.24391633 0.13468507 0.76701486
0001f0 34 2c 8c 3f 9b 3a ae 3e de 89 38 3f b4 1c d2 3e
       1.095099 0.34029087 0.7208537 0.41037524
000200 b7 51 f7 3f be 44 81 3f 1b 5f b8 bf 8b 9c 90 bf
       1.9321812 1.0099103 -1.4404024 -1.1297773
000210 f3 27 0a be 3f 3c d1 3f 9f 6a 27 3f c9 2c 13 3f
       -0.13491802 1.6346511 0.65397066 0.5749021
000220 92 3f 92 3f c1 4f 8b 3c 3c 18 e7 bf 4e 99 6c 3f
       1.142565 0.017005803 -1.8054271 0.92421424
000230 ca 1f c1 be a2 1c 84 3f bf 1d 30 bf fa ba 22 3f
       -0.37719566 1.0321238 -0.6879539 0.63566554
000240 3d 25 7a bf f2 70 76 3f db 93 ce 3f ec d3 b9 3f
       -0.9771307 0.9626609 1.6138872 1.4517798
000250 da b0 8b 3e 39 1b 5f be e5 bc 3c bf 10 af df 3d
       0.27283365 -0.21787728 -0.7372573 0.109220624
000260 6b 26 b5 3e 66 dd 78 3f 66 6b f0 be ac dc cd 3f
       0.35380873 0.9721283 -0.46956939 1.6082969
000270 44 e6 1e c0 3e 42 d3 be fc 79 98 bf ad 1b 51 3f
       -2.4828043 -0.41261476 -1.1912227 0.81682855
000280 5c 1c f3 bf 94 fb 6d 3e 6e 83 bf 3c cc f7 b0 be
       -1.899303 0.232405 0.0233781 -0.34564054
000290 ba 60 92 3e be 41 3b bf 35 64 31 3e 8d 2f 8c bf
       0.28589422 -0.7314719 0.17323382 -1.0952011
0002a0 6a 15 cd bf 63 34 ad 3f 66 00 a5 3f 35 66 57 3d
       -1.602216 1.3531612 1.2890747 0.052587707
0002b0 9f db c5 bf 84 d4 41 3f 05 12 47 3f 8d b2 01 40
       -1.5457648 0.757149 0.7776187 2.0265229
0002c0 fe 43 13 3d ba 29 f8 3d e9 41 4e bf 10 0b 57 be
       0.035953514 0.12117334 -0.8056932 -0.21000314
0002d0 c9 f8 6e bf cf 73 cb bf 18 85 91 bf 46 9f 05 bf
       -0.93348366 -1.5894717 -1.1368742 -0.52196157
0002e0 c2 bd 04 bf e5 48 c0 bf d5 ae f6 bf 2d 39 04 3e
       -0.5185205 -1.5022246 -1.9272105 0.12912436
0002f0 b2 0f 83 3f 61 fc 0d bf ca 18 34 3f 0a fa 35 3f
       1.0239165 -0.55463225 0.70350325 0.71084654
000300 3e 04 e3 3f cd 6b 6b bf ed 78 76 3f 01 db ab be
       1.773567 -0.91961366 0.9627827 -0.33565524
000310 db 46 96 bf 86 f4 b6 3e f4 a1 f0 3e 12 3c ae 3f
       -1.1740373 0.35733432 0.4699856 1.3612082
000320 47 45 04 3f 6c 43 07 40 de 73 02 bf c2 dd 6f bf
       0.5166821 2.11349 -0.5095805 -0.9369775
000330 36 38 35 3e 37 ac 89 3f 52 04 a8 3f 3d b7 ef 3e
       0.17697224 1.0755681 1.3126318 0.46819487
000340 2f 42 52 bf 4f 78 81 bf 00 bf ff be fd 67 15 bf
       -0.8213224 -1.011484 -0.4995041 -0.583618
000350 19 9f 26 3e 23 ff e5 3e 98 e1 0d be 1a cc 13 c0
       0.16271628 0.44921216 -0.13855588 -2.3093324
000360 dd 74 cd be 3d 8a 8a 3f 4f 32 e4 bf 42 8c c0 3f
       -0.40128222 1.0823437 -1.7827853 1.5042803
000370 97 6f 9e 3e 48 b5 01 bf bc 4a 84 3f 19 63 d8 3f
       0.3094451 -0.5066724 1.0335307 1.6905242
000380 a5 35 1a bb 4d 94 d5 3f 9f 57 1d 3e 59 69 87 bf
       -0.002353051 1.6685883 0.15365456 -1.0579025
000390 9c 85 12 bf 44 fe af 3d 95 50 ce 3e 91 e6 fe 3f
       -0.5723512 0.08593419 0.40295854 1.9914113
0003a0 24 10 90 bd b4 a3 68 bf 47 49 03 c0 61 d6 89 bf
       -0.070343286 -0.9087479 -2.0513475 -1.0768548
0003b0 ec fe 65 3c ac a5 92 3d d0 d7 45 3e 89 4b cd 3e
       0.014037829 0.07160506 0.19320607 0.4009669
0003c0 40 7f 6e bf 7d f6 8e 3e dc bd 08 bf a2 75 ee 3e
       -0.9316292 0.2792243 -0.534147 0.46574122
0003d0 2f c9 5f bf 50 3b c5 bc af 4f b5 be cb a0 bb 3f
       -0.87416357 -0.024076134 -0.35412356 1.4658445
0003e0 8d eb a0 3f 64 ff 35 bf a6 12 5b 3f f1 70 03 3f
       1.2571884 -0.7109282 0.8557533 0.5134421
0003f0 df f2 07 3f 2c 16 13 3f 19 64 fe 3e 22 f1 61 3e
       0.53104967 0.57455707 0.49685743 0.22064641

main.0.weight f4 [256, 218]
000000 42 ca 81 3c 6b 81 c1 3c 1b 0a ba 3c 9b f6 f3 3b
       0.015843514 0.023621282 0.022709897 0.007445169
000010 63 0e 2a bb 65 5a 48 bc df e7 b8 3a 6f 82 b1 bc
       -0.0025948517 -0.012228583 0.0014107189 -0.02166864
000020 57 c6 b3 3b 43 1f fd bc 5e 68 d7 3b 01 bc 42 bb
       0.0054862904 -0.030898696 0.006573721 -0.002971411
000030 7b f8 d1 bb 29 f9 82 3b c7 3e d1 bb 41 30 1a 3a
       -0.006407795 0.0039969874 -0.0063856575 0.0005881824
000040 ad 2c a1 bb 91 93 ab 3c 66 5a 4c 3c 9d e2 a9 bc
       -0.004918656 0.020944389 0.012472725 -0.02073794
000050 21 0c fb bb eb 63 94 bc b1 0b a3 38 66 b7 e9 bb
       -0.007661358 -0.01811405 7.7746234e-05 -0.0071324585
000060 06 45 fb bb 38 00 af b9 80 5a ab bb e6 65 96 bc
       -0.0076681403 -0.00033378764 -0.0052292943 -0.018359136
000070 dc a5 d7 3b 40 33 aa 3a ab e2 7c bc b1 0a 82 3c
       0.0065810513 0.0012985244 -0.015434901 0.015874239
000080 41 3b 85 3b 4b 21 02 bc 57 2a 19 3c 20 3f 94 bc
       0.0040659015 -0.007942508 0.0093484735 -0.018096507
000090 5a 71 9c bc 9c 41 62 3b 3e 29 cf 3c 62 9a 26 3c
       -0.019097019 0.003452397 0.02528822 0.010168644
0000a0 50 79 93 bc 87 a7 0c 3c 5c 4d 39 3c 7e 68 91 3c
       -0.018002182 0.0085848635 0.011309948 0.017750021
0000b0 0b ff ca 3b 88 f3 50 3c bf 83 27 3b 9a 26 62 3c
       0.0061949543 0.012753375 0.0025560705 0.013803149
0000c0 4f 1f 66 3b 47 b7 b9 3c e8 8c f6 3a 91 e6 24 bc
       0.0035113876 0.022670401 0.0018810304 -0.010064737
0000d0 55 49 87 bc 29 ec 95 bc c1 51 90 bc 7b d1 32 bb
       -0.01651446 -0.018301087 -0.017617108 -0.0027285505
0000e0 12 8b 58 3c 87 1e 96 3c e5 52 05 bb cf 57 c9 3c
       0.013216751 0.018325103 -0.0020343598 0.024578003
0000f0 8e 0d 12 3b 13 44 f4 3c fb ba 88 bb 36 f9 8d bc
       0.0022285911 0.029817617 -0.0041726804 -0.017330747
000100 6e 09 40 3c 77 be 1e bc 68 95 9c bc ef d0 8d bc
       0.011720998 -0.009688965 -0.019114211 -0.017311541
000110 0b ec 00 39 6b 40 4b 3c aa 8e 64 3b df 59 97 3c
       0.00012294964 0.012405495 0.0034875073 0.018475471
000120 76 ef 9e bb 53 8d 14 3c 39 fb 95 3c a5 04 30 bb
       -0.0048503233 0.009066897 0.018308269 -0.0026858237
000130 b1 99 71 3b 95 71 3d 3c 92 ab 08 bc 81 da 2c bb
       0.003686529 0.011562725 -0.008341687 -0.0026375356
000140 1b 0c 83 bc 59 f4 8a bc cf 1f 9a bc ea e1 47 3a
       -0.015996983 -0.016962217 -0.018813996 0.00076249114
000150 ac 1d 2f bc db 0c d1 bc 14 c3 20 bb 5e 43 49 bb
       -0.010688227 -0.025518825 -0.0024530338 -0.003071032
000160 bb 3a 9d 3c 3e 61 21 bb 73 a9 91 3c a1 73 72 3c
       0.019193044 -0.0024624611 0.017780995 0.014798076
000170 6a a3 b0 3b 05 13 85 3c 82 58 bc 3b 16 c4 af 3c
       0.005390574 0.01624442 0.0057478556 0.021455806
000180 bf 44 53 bc 92 2b af bb eb 1f 40 3b b5 6f 4f 3c
       -0.012894808 -0.00534577 0.00293159 0.01266091
000190 4e e6 53 3b cc 7a d5 3b ad 5c c2 bb 63 ae 35 3d
       0.0032333317 0.0065148827 -0.005931458 0.04435576
0001a0 81 29 ca 3b 02 13 d9 3b 72 46 80 bc 15 f4 ba bb
       0.0061694984 0.0066245804 -0.015658591 -0.0057053664
0001b0 55 33 04 bc bc 20 c3 3c 5e 2a b8 3c 1a 1d e1 3c
       -0.008068879 0.02381932 0.02248114 0.027479697
0001c0 c9 e8 37 bc 30 57 60 bb d2 94 7f 3c 28 eb ae 3c
       -0.011224934 -0.0034231655 0.015599446 0.021352366
0001d0 25 f2 29 3c c5 31 8d 3b aa d7 d6 3b 97 7e 57 3c
       0.010372673 0.0043089115 0.006556471 0.01315274
0001e0 cd a8 fc 3c 5d e8 6c 3c f6 e2 24 3c 9a a4 0a 3b
       0.03084221 0.014459697 0.010063877 0.002115524
0001f0 96 56 75 3c e9 e4 bf 3b e5 d2 40 3c 34 9f 3d bc
       0.014974257 0.0058561456 0.011769031 -0.0115736015
000200 82 b5 bc 3c f1 df 29 bc fc 7e b3 39 8f 0f 50 3c
       0.023035768 -0.010368333 0.0003423615 0.012699022
000210 ca 16 9d bc 5c a3 ef bc 91 88 a0 bb 78 09 c4 bc
       -0.019175906 -0.0292527 -0.0048990925 -0.023930296
000220 a0 d1 c4 ba a3 91 6c 3c 9f 88 3a bb 82 c4 80 bb
       -0.0015016086 0.014439019 -0.002846278 -0.0039296756
000230 f7 37 20 bb ed 90 2c bc 5f a3 8a 3b 85 29 8f 3b
       -0.002444742 -0.0105326 0.004230901 0.004368963
000240 6b c3 4f bc 56 2a 1e bc 28 e3 48 bc 3c 74 cc bb
       -0.012680869 -0.009653648 -0.0122611895 -0.006239442
000250 f6 f5 3c 3b 92 e0 79 3c b5 c6 9a bb fb c6 5f 3c
       0.0028833128 0.015251296 -0.0047233948 0.0136582805
000260 a4 21 4c 3b c4 89 5f bc aa 76 8c 3b 57 39 0b bc
       0.003114798 -0.013643686 0.004286607 -0.008497558
000270 0a 7f cd 3c e2 38 75 bc 7b b4 10 bc a3 f3 22 3b
       0.025084991 -0.014967175 -0.008832092 0.0024864457
000280 46 e9 ca ba 29 7c ae 3c ac ce af 3b 01 ac 29 bb
       -0.0015480898 0.021299439 0.0053652134 -0.0025889876
000290 44 b1 1c 3c ab 07 0f 3d 37 d1 d7 3c c7 88 52 bc
       0.009563748 0.034919422 0.026344879 -0.012849993
0002a0 93 b7 24 bb 50 f1 56 3b 51 0d 83 3c 6d 3d 11 3c
       -0.0025133833 0.0032797642 0.01599756 0.008864743
0002b0 f6 53 84 bc d6 25 66 bc ec c1 ba 3b 39 65 9c 3c
       -0.016153317 -0.014047107 0.005699387 0.019091235
0002c0 a6 95 88 3c e5 66 ae bb 6c 6e 82 bc a4 c4 51 3c
       0.01667292 -0.0053223246 -0.015921794 0.01280323
0002d0 00 d4 c2 bc 2f 11 fb ba 13 79 8c bc ba f2 13 3c
       -0.02378273 -0.0019154901 -0.017147576 0.0090300385
0002e0 59 3b 11 39 d2 bd 67 3c 53 ca 10 3b fe 61 a2 bb
       0.00013850386 0.014144378 0.002209325 -0.0049555292
0002f0 b8 e0 96 3c 6e a1 6d 3b f6 f9 68 3c 0f 19 00 bc
       0.018417701 0.003625955 0.014219752 -0.007818474
000300 21 9a 88 bb 9f 1f 18 3d c2 26 0e bc 5c 8d f8 bb
       -0.004168764 0.03713953 -0.008676233 -0.0075852107
000310 bc 9f d3 3c fb 55 78 bc 66 87 1b bc 8d 44 a6 3a
       0.025833003 -0.015157218 -0.009492731 0.0012685225
000320 6b 9e 02 bc 21 95 87 3b 77 f1 2b 3b 1e 32 4a bc
       -0.00797234 0.0041376506 0.0026236454 -0.01234105
000330 89 a5 6c 3c 95 4b 69 bb b8 7b 19 bc 67 01 5f bc
       0.0144437635 -0.003559803 -0.009367876 -0.013611174
000340 8b ab 7b bc a7 b1 70 3c b7 8d 7b bc 47 9e 4f 3b
       -0.015360723 0.014690793 -0.015353612 0.0031680034
000350 b7 f7 2e bc 42 34 cf 3b 4f 06 66 bb ad c2 6b 3c
       -0.010679177 0.0063233683 -0.0035098975 0.014389676
000360 7a 29 df 3b 72 6f 80 3c b2 cd 86 bc c1 f9 de 3c
       0.0068103643 0.015678141 -0.016455505 0.027218701
000370 34 94 ee 3c f5 00 07 bc a9 f9 c4 3b 01 9c 20 3a
       0.029123403 -0.008239974 0.006011207 0.0006126762
000380 d8 ea 5f 3c c7 d6 91 bc a2 54 79 bc 2b 5f c7 bc
       0.013666831 -0.01780261 -0.015217932 -0.024337372
000390 c6 d2 52 39 73 1d cf 3b 84 69 2d 3b bb 07 1f 3c
       0.0002010568 0.0063206493 0.0026460597 0.009706433
0003a0 65 75 4d bc 5d c5 02 bc 27 86 2f bc a8 7e 8d 3c
       -0.012540196 -0.007981625 -0.010713137 0.017272308
0003b0 14 79 a6 bb bb 86 49 bc 11 14 7c 3c 99 21 a7 bc
       -0.0050803516 -0.012300189 0.015385644 -0.020401763
0003c0 ce 8a 53 bb 6a c6 0e bc 1f 8e 27 bc 9d ae 50 bc
       -0.003227878 -0.008714298 -0.010226755 -0.012736944
0003d0 bc 25 8a bc db 27 9f bc 20 ef 73 3b bc b3 27 3c
       -0.016863696 -0.019428184 0.0037221387 0.010235723
0003e0 3a b2 d5 bc da ed 97 bb 8c a3 89 bb c8 53 f1 bc
       -0.026085962 -0.0046365084 -0.0042004045 -0.029458895
0003f0 9a ee c3 3c 37 da d5 bc 93 58 30 bc c7 b7 0e bb
       0.023917485 -0.02610503 -0.010763305 -0.002177702

main.0.bias f4 [256]
000000 c9 9b 59 3c 67 4e 0c 3c 93 45 28 3c 37 dd 58 3c
       0.013281771 0.008563614 0.010270494 0.0132363355
000010 3b 0e 76 ba b0 dc 19 3c 5a 4d 48 3c d1 23 60 3c
       -0.0009386276 0.009390995 0.012225473 0.013680414
000020 a1 a9 4d 3c 04 a5 33 3c da 8c 8b bb b0 25 37 3c
       0.01255265 0.010964636 -0.004258734 0.011178419
000030 21 25 55 3c 0d 9b 0f 3c 55 d3 20 3c fc a5 12 3c
       0.0130093405 0.008764994 0.0098160105 0.008950707
000040 ae 22 32 3c 7a ef 10 3c 53 ff 08 3c d0 9b 2b 3c
       0.010872526 0.008846158 0.008361655 0.01047416
000050 97 4a 48 3c 2e 8a 1e 3c f7 d7 2e 3c e4 f0 32 3c
       0.012224815 0.009676499 0.010671607 0.010921691
000060 0f df 0d 3c 86 42 05 3c af e0 3b 3c cb 11 27 3c
       0.008659138 0.008133536 0.011467143 0.010197113
000070 b5 58 4e 3c 10 b3 28 3c 46 df 03 3c 0a 0f 2e 3c
       0.012594392 0.010296598 0.008048838 0.010623703
000080 f6 2e 3c 3c ce ce 4a 3c 9a 9e 05 ba 35 cc 1d 3c
       0.011485806 0.012378408 -0.0005097181 0.009631206
000090 4a 3c 03 3c d9 a6 48 3c 3c 37 24 3c 96 f4 37 3c
       0.0080099795 0.012246811 0.0100229345 0.011227747
0000a0 16 e7 2b 3c 2f 3d 6b 3c d8 be 3e 3c e0 67 38 3c
       0.010492107 0.014357849 0.01164218 0.0112552345
0000b0 f8 51 25 3c a4 4b 12 3c ae 72 62 3c 42 7a f1 3b
       0.010090344 0.008929167 0.013821287 0.0073693106
0000c0 ac a8 f5 3b be 2d 18 3c 6f 95 56 3c 8b ae 54 3c
       0.007496914 0.00928825 0.013097151 0.012981067
0000d0 19 7c 19 3c c0 0b 51 3c 6f 50 14 3c 1a a8 4a 3c
       0.009367966 0.012759149 0.00905238 0.01236918
0000e0 7b 47 33 3c ef 44 bb 3b f3 52 8c bb ae 5f 25 3c
       0.010942335 0.0057150046 -0.0042823493 0.010093613
0000f0 a2 21 17 3c d6 99 5e 3c 33 6d 25 3c b8 6a 2a 3c
       0.009224327 0.013586482 0.010096836 0.01040142
000100 15 b0 4e 3c 92 2f 1e 3c fa a5 1b 3c 4a 08 1e 3c
       0.012615223 0.009654896 0.009500021 0.009645531
000110 50 2b 60 3c 6d 88 0c bb 13 d3 3d 3c e1 b4 3f 3c
       0.0136822015 -0.002144362 0.011585969 0.01170084
000120 7a f1 37 3c b9 41 61 3c 63 25 37 3c 6c d6 57 3c
       0.011227006 0.01374858 0.011178347 0.013173681
000130 9b d4 1d bc 19 9e 10 3c 13 88 15 3c 62 a7 3b 3c
       -0.009633209 0.008826756 0.009126681 0.011453481
000140 71 e0 2f 3c 83 42 21 3c f6 04 26 3c aa 49 75 3c
       0.010734663 0.009842518 0.010133019 0.014971176
000150 31 5e 48 3c 16 99 35 3c 77 60 16 3c 56 28 2e 3c
       0.012229488 0.011083862 0.009178272 0.010629734
000160 e3 97 10 3c a5 18 02 3c dc e2 25 3c dc 69 69 bb
       0.008825275 0.007940446 0.010124888 -0.0035616076
000170 95 c4 54 3c 67 a1 2c 3c a5 d0 47 3c eb a4 14 3b
       0.012986322 0.010536528 0.012195741 0.0022681307
000180 f1 18 2e 3c a0 3e 41 3c fb 9b 2a 3c 36 88 2a 3c
       0.010626064 0.011794716 0.010413165 0.010408452
000190 25 9a 0f 3c 91 6a 23 3c 37 09 26 3c 09 40 1f 3c
       0.008764778 0.009974138 0.010134033 0.009719857
0001a0 ed 96 32 3c c7 95 49 3c 25 20 16 3c 78 2c 28 3c
       0.010900241 0.012303776 0.009162937 0.010264508
0001b0 75 35 28 bb 41 b5 be ba bf 18 35 3c d2 fe 1c 3c
       -0.0025666628 -0.0014549867 0.011053263 0.009582238
0001c0 5d d1 7b 3c 41 94 3b 3c 32 d0 13 3c 23 65 98 3b
       0.01536974 0.011448921 0.009021806 0.0046507283
0001d0 05 0a 2a 3c 4a 20 5d 3c b9 e7 18 3c a5 b3 2b 3c
       0.010378365 0.013496468 0.009332591 0.010479842
0001e0 27 c3 35 3c d6 65 24 3c 47 f4 3a 3c d3 80 ff 3b
       0.011093891 0.010034045 0.011410779 0.0077973395
0001f0 be 6a 33 3c 50 7e 1a 3c b0 4a 4f 3c 0c 87 36 3c
       0.010950742 0.009429529 0.012652084 0.011140596
000200 1a f6 15 3c 49 27 70 ba 30 90 0c 3c 0a 56 3f 3c
       0.0091529135 -0.00091611274 0.008579299 0.011678228
000210 15 97 47 3c a3 c9 31 3c fd d6 5d 3c c7 1c 1d 3c
       0.012182017 0.010851297 0.013540027 0.009589381
000220 3b f4 27 3c 40 60 2a 3c 18 e1 b0 3b 13 a5 31 3c
       0.0102511 0.010398924 0.005397927 0.010842579
000230 c4 21 63 3c a9 6c fb bb ac be 1c 3c c6 20 29 3c
       0.013863031 -0.0076728654 0.009566944 0.010322755
000240 83 74 31 3c 3c 10 44 3c 70 3f 60 3c 65 b1 39 bb
       0.010831001 0.011966761 0.013687 -0.0028334495
000250 92 45 34 bb 5d 78 25 3c 94 cd 2f 3c 3a 6c 2f 3c
       -0.0027507287 0.010099498 0.010730166 0.010706956
000260 f1 06 3a 3c 75 3d 07 3c f1 68 2a 3c 77 c4 15 3c
       0.011354194 0.008254399 0.010400997 0.009141079
000270 34 ef 4b 3c 62 94 49 3c 57 07 56 ba 01 c6 00 3c
       0.012447167 0.012303444 -0.0008164546 0.007859708
000280 dc 94 25 3c ce a9 0d 3c d1 ac 34 3c f2 1e ac 3b
       0.010106292 0.008646442 0.011027531 0.0052527124
000290 a7 a6 5d 3c 33 23 2a 3c f2 c4 0a 3c 2b 23 54 3c
       0.013528503 0.010384369 0.008469807 0.012947838
0002a0 b9 08 1d 3c 54 87 39 3c 25 31 75 3c 10 b3 51 3c
       0.009584599 0.011323769 0.01496533 0.0127990395
0002b0 95 e2 af 3b ad a8 5a 3c cc 05 0c bb 2f 57 33 3c
       0.005367587 0.0133458795 -0.002136576 0.010946079
0002c0 86 19 2e 3c 33 41 45 ba 21 42 16 3c 05 12 f0 bb
       0.010626202 -0.0007524669 0.00917104 -0.007326367
0002d0 8d 13 56 3c db 04 72 3c 01 df 03 3c be bd 17 3c
       0.013066185 0.014771665 0.008048774 0.009261547
0002e0 07 49 21 3c f1 33 f6 ba 4d 40 21 3c 87 c9 38 3c
       0.009844071 -0.001878379 0.009841991 0.011278517
0002f0 47 55 34 3c 19 d2 28 3c c5 69 fb 3b 7e c4 54 3c
       0.01100666 0.010303997 0.007672521 0.0129863005
000300 1c 57 33 3c a2 64 c7 3b 1e ea 81 ba d5 4c 13 3c
       0.010946061 0.0060849944 -0.0009911691 0.008990486
000310 4d b9 15 3c 3d 96 55 3c 03 1b 35 3c e0 95 0e 3c
       0.009138417 0.013036308 0.011053803 0.008702725
000320 0d fb dd ba 10 96 1b 3c 6d ff 24 3c 2f c7 14 3c
       -0.0016935781 0.009496227 0.010070664 0.009080692
000330 16 ef 20 3c e5 61 3d 3c 8e 94 32 3c d7 2c 33 3c
       0.0098226275 0.011558984 0.010899676 0.010935984
000340 1a b8 4b 3c 46 d4 44 3c 70 43 2e 3c aa 97 34 3c
       0.01243403 0.012013501 0.010636196 0.011022488
000350 7b 55 30 3c 28 08 2c 3c b4 e0 2b 3c b7 56 35 3c
       0.010762568 0.0104999915 0.010490585 0.011068038
000360 93 75 2d 3c 6d 92 3b 3c 86 3c 20 3c 0c ca a4 ba
       0.010587114 0.011448485 0.009780055 -0.0012572422
000370 e3 3d 3e 3c 80 cf 14 3c 17 b1 32 3c 3f 64 0a 39
       0.011611435 0.009082675 0.010906479 0.0001319805
000380 56 21 ec ba 31 00 53 3c 33 81 51 3c c2 a2 1c bb
       -0.0018015306 0.012878464 0.012787151 -0.0023900722
000390 d7 de 26 3c 36 44 c1 ba 3f 30 45 3c 4c 0d 1c 3c
       0.010184965 -0.001474506 0.012035429 0.009524655
0003a0 78 b1 38 3c b2 b3 5f 3c 6d 77 18 3c a8 e2 2d 3c
       0.011272781 0.013653683 0.009305817 0.010613121
0003b0 b8 0e 26 3c 9f b3 c6 3b aa f1 22 3c 91 62 19 3c
       0.010135345 0.006063893 0.0099453125 0.009361879
0003c0 e4 32 da 3b 73 b3 46 3c 2b b8 2c 3c 25 d5 5b 3c
       0.0066588987 0.012127745 0.010541956 0.013417517
0003d0 85 ab b9 b8 e5 ad fe 3b ea 13 37 3c cd b3 2b 3c
       -8.8534354e-05 0.0077721947 0.0111741815 0.01047988
0003e0 e5 d5 36 3c 1f 1f 3d 3c b9 f2 8c 39 b0 a2 52 3c
       0.011159395 0.011543064 0.00026883723 0.012856171
0003f0 b5 5c 53 3c 1f 04 64 3c df 87 45 3c 4d 74 5b 3c
       0.012900521 0.013916998 0.01205632 0.0133944275

main.2.weight f4 [256, 256]
000000 c1 46 af 3c 27 0a 0e 3c a7 f5 d4 3c 37 cf b1 3c
       0.021396043 0.008669413 0.025996042 0.021705253
000010 03 1e c3 bc 3d 7e a6 3a 66 8d 1a 3d 00 cb 93 3c
       -0.023818022 0.0012702417 0.037732504 0.018041134
000020 c9 11 03 3d 6a 99 08 3c 75 e8 1e bd 43 26 0b 3d
       0.031999383 0.008337358 -0.038795907 0.033972036
000030 5c 79 57 3c 9d 8b bc 3c 6e eb c1 3c fa 80 a6 3b
       0.013151493 0.023015792 0.023671832 0.005081293
000040 68 2b 85 3c 7f 7d c0 3c bb c0 8c 3c 35 d2 a0 3c
       0.01625605 0.023497341 0.017181745 0.019631485
000050 79 dd 56 3c 7b 0f a6 3b 52 f0 86 3c f9 44 47 3c
       0.013114327 0.0050677634 0.016472016 0.01216244
000060 2f 90 ca 3c 33 b4 5a 3c 42 76 12 3d 86 2c 0d 3c
       0.024726955 0.013348627 0.03575731 0.008616572
000070 94 65 aa 3c e5 b2 1b 3c da e1 c7 3c 0d dc bd 3c
       0.02080039 0.009503101 0.024399687 0.023176217
000080 f7 9d 87 3c 1e 40 3d 3c c4 12 9f bc 8e dd 8b 3c
       0.016554816 0.011550931 -0.019418128 0.017073419
000090 e6 c7 75 3c f1 98 83 3c ee 23 a5 3c 86 6f b2 3b
       0.015001273 0.01606414 0.020158734 0.0054454235
0000a0 fe 25 11 3c 68 41 ae 3c 75 41 9b ba 03 a9 f4 3c
       0.008859156 0.021271423 -0.0011845069 0.029865747
0000b0 c5 ae df 3b c1 d4 b7 3c 03 50 49 3c 2f da 90 3c
       0.006826254 0.022440316 0.012287143 0.017682163
0000c0 2e b1 ad 3a bd 9a 02 3c 78 d6 92 3c 87 95 a4 3c
       0.0013251656 0.007971463 0.017924532 0.020090831
0000d0 be e3 ea 3b 7c 2d 55 3c 8a c8 9a 3c c5 ab 2f 3d
       0.0071682623 0.013011333 0.018894453 0.04288842
0000e0 bd 34 a0 3b b0 c8 13 3c 24 7f 84 bc 70 4e 2d 3c
       0.0048890994 0.009020016 -0.016173907 0.010577783
0000f0 e9 81 0b bb 30 58 d4 3c e0 4d ab 3c 42 4a 34 3c
       -0.002128715 0.025920957 0.020911157 0.011004033
000100 b9 d0 f3 3c 8c f4 94 3c 8d 6f bc 3b c1 75 81 3c
       0.029762613 0.018183015 0.0057506026 0.01580322
000110 bb 9a dd 3c 7f 75 80 bc 73 29 ae 3b fc 76 b7 3c
       0.02705132 -0.015681027 0.0053149997 0.022395603
000120 38 c1 6b 3c 9e 6f 5c 3c 37 7d 12 3d 28 24 91 3c
       0.014389329 0.013454346 0.035763945 0.017717436
000130 ec 36 ab bc c2 38 ba 3a 78 78 a3 3c 8d 2c 95 3c
       -0.020900212 0.0014207589 0.019954905 0.01820972
000140 cc 23 c7 3c 3d b5 8c 3b 45 08 a8 3c 7a 7d 9d 3c
       0.024309061 0.004294066 0.020511756 0.019224871
000150 f8 dc ed 3c a9 3f ad 3c b7 36 f3 3c 54 58 20 bc
       0.02903603 0.02114852 0.029689176 -0.009786684
000160 1d 4d b4 3c 70 ce 87 3c 86 60 ab 3c 1f 03 83 bc
       0.022009427 0.01657793 0.02092005 -0.0159927
000170 8f e3 e5 3a e9 3c b1 3c 8b ab b2 3c 32 c5 21 bc
       0.0017539131 0.02163549 0.021810314 -0.009873675
000180 fc c0 c5 3b e4 b2 d4 b9 ab d1 d5 3c 2d 39 4d 3c
       0.0060349684 -0.00040569075 0.026100954 0.012525839
000190 91 39 7a 3c fd 01 5f 3c cd 9f 68 3c 47 ed db 3c
       0.015272514 0.013611314 0.014198256 0.026846541
0001a0 f7 98 5c 3b 08 09 af 3b 59 ff d4 3c e4 83 86 3c
       0.003366051 0.005341653 0.026000666 0.016420312
0001b0 6b 51 0f bc 1d 14 37 bc 31 2b b8 3c 9f cd 54 3c
       -0.008747439 -0.011174229 0.022481533 0.012988477
0001c0 a3 dc 75 3c b4 a2 bc 3c 07 f9 f1 3b fe 7a 09 3c
       0.015006217 0.023026802 0.0073844227 0.00839114
0001d0 fc e1 a7 3c 15 85 cd 3c e6 df bb 3c 4c 24 3f 3c
       0.0204935 0.025087873 0.022933912 0.011666369
0001e0 b8 1a ea 3c 08 91 75 3c 7d d1 90 3c 2a a1 22 3c
       0.028577194 0.014988191 0.017678017 0.00992612
0001f0 bd 97 c8 3c 60 1e 50 3c b5 fc 00 3d 64 f8 aa 3c
       0.024486417 0.012702554 0.031491 0.020870395
000200 22 f2 f4 3b 1b c1 b2 bc 2b 79 81 3c e0 3c 7e 3c
       0.0074751535 -0.021820595 0.015804848 0.015517443
000210 cb 57 a5 3c fc 31 96 3c 86 3d a8 3c b9 ff 9e 3c
       0.020183465 0.018334381 0.02053715 0.019409047
000220 e2 10 5a bc 6a 14 19 3c cc fd 46 b7 ef d6 c4 3c
       -0.013309689 0.009343246 -1.1860811e-05 0.02402827
000230 3b c0 3c 3d bb ae 16 bc a3 09 b4 3b 46 cb 19 bc
       0.046081763 -0.009196932 0.005494313 -0.009386843
000240 58 2d 57 3c 6c 6c b0 3c f4 83 16 3c 20 20 33 bb
       0.013133369 0.021536075 0.0091867335 -0.002733238
000250 8b 42 7d bc 9a 56 52 3c f9 6b 80 3b fc 03 21 3c
       -0.01545776 0.01283803 0.0039191213 0.00982761
000260 41 76 f6 3c 73 d0 46 3c 9c 0d 99 3c ea cd 0f 3d
       0.030085685 0.012134659 0.018683247 0.035108484
000270 4c 65 6f 3c fc 25 a0 3c bb 37 27 bc c1 48 b8 3c
       0.014611553 0.019549362 -0.010206158 0.02249563
000280 4a cf e9 3a eb 22 aa 3c 76 13 ea 3b 1e b7 04 3c
       0.0017838266 0.020768603 0.007143433 0.008100299
000290 37 a6 e3 3c 56 a8 97 3c f9 20 c1 3c 1c c3 8d 3c
       0.027789218 0.018512886 0.023575293 0.01730495
0002a0 7a 5e 89 3c aa b3 aa ba de f4 13 3d 23 01 1e 3c
       0.016768683 -0.0013023515 0.036122195 0.009643826
0002b0 80 43 79 3c 70 3b bf 3c b9 88 8a bb 67 39 41 3c
       0.015213847 0.023343772 -0.0042277244 0.011793471
0002c0 81 6e 8b 3c 8d 65 10 bc 93 6d 71 3c 91 5b 8c bc
       0.017020466 -0.008813274 0.014735597 -0.017133506
0002d0 97 02 ba 3c 44 79 1e 3b 8e e9 c1 3c 38 6c 86 3c
       0.022706313 0.0024181167 0.023670938 0.016409025
0002e0 ed be 49 3c 14 34 82 bc bf 3a 3e 3b ad ba e2 3b
       0.012313587 -0.015893973 0.0029026715 0.006919226
0002f0 25 f8 6d 3c bd 1a b3 3c 26 75 bc 3a 60 18 fd 3c
       0.014524494 0.021863336 0.0014378175 0.030895412
000300 ae 44 f5 3c a6 b2 96 3c ba 1d 9d bb fa dd c2 3c
       0.029939976 0.018395733 -0.0047948034 0.023787487
000310 8a 8f 82 3c f7 c9 d7 3c 18 09 fe 3c 46 b2 0f 3c
       0.015937585 0.026341422 0.031010196 0.008770531
000320 12 13 a0 bc 49 dd a5 3a 68 dd 37 3b 07 12 dc 3b
       -0.019540343 0.0012654449 0.0028055552 0.006716016
000330 81 55 4a 3c bc 41 4a 3c fb 3a 74 3c 40 27 24 3c
       0.012349487 0.012344774 0.01490664 0.010019124
000340 75 04 72 ba 02 8e 83 3c 1b 97 38 3c 70 c5 06 3c
       -0.00092322315 0.016058926 0.011266495 0.008225784
000350 d0 c1 d3 3c 69 0b 3c 3c 44 4f 3a 3c 25 76 73 3c
       0.025849253 0.01147733 0.011371437 0.014859711
000360 ff ce ac 3c 86 05 fb 3c 6f 61 7a 3b a8 9b d5 bb
       0.021094797 0.030642282 0.0038205048 -0.0065188
000370 7c d8 16 3d 30 ae a9 3b eb 06 72 3c a2 e2 67 bc
       0.03682755 0.0051782355 0.014772157 -0.014153155
000380 55 7a 88 bc 27 f4 c9 3c 56 66 fd 3c 7d 18 f9 bb
       -0.016659895 0.024652554 0.030932587 -0.007601796
000390 b5 a2 05 3a a3 ec 8f bc a6 4c 09 3d ad 89 f5 3c
       0.00050977926 -0.017568892 0.033520363 0.029972875
0003a0 b0 2e 02 3d ca 4f bd 3c 2e df 71 3c ed 69 91 3c
       0.031782806 0.023109335 0.014762683 0.017750705
0003b0 62 ac e0 3c cd 8d b2 3b 0a 55 48 3c 96 ba 8e 3c
       0.027425949 0.005449033 0.012227306 0.017422955
0003c0 13 4b 98 3c 91 3d bb 3c 62 50 02 3d 21 e5 04 3c
       0.018590486 0.022856506 0.03181494 0.008111269
0003d0 9f 85 39 bc 30 b8 2a 3c d4 93 85 3c 1c 9b 83 ba
       -0.011323362 0.01041989 0.016305842 -0.0010040733
0003e0 a9 2d b9 3c 50 d2 21 3d 2e 32 4d bc 86 39 c0 3c
       0.02260478 0.03950721 -0.012524171 0.02346493
0003f0 b2 5f 11 3d 04 c7 84 3c 85 5d 0e 3d 32 55 30 3d
       0.035491653 0.01620818 0.034757156 0.04305

main.2.bias f4 [256]
000000 5c b1 07 3c 14 3d 05 3c 6c 60 05 3c cc 01 15 bc
       0.008282032 0.008132238 0.008140665 -0.009094667
000010 56 71 13 3c ef 97 ff 3b f6 51 04 bc 0e 32 0b bc
       0.008999189 0.0078000943 -0.008076182 -0.008495821
000020 72 a3 07 3c a7 50 05 3c 44 dc 03 3c 21 70 e6 bb
       0.0082787145 0.008136905 0.008048121 -0.00703241
000030 17 93 0f bc a9 2a 0e bc bb 55 f7 bb a0 8e 08 3c
       -0.008763096 -0.008677163 -0.0075480617 0.008334786
000040 5e d0 0e 3c 35 49 02 bc 41 98 0c bc c7 30 12 bc
       0.008716671 -0.007952024 -0.008581222 -0.008922762
000050 37 4e 04 3c c0 0a fe 3b ac 8b 04 3c af d2 03 bc
       0.0080752885 0.0077527463 0.008089941 -0.008045836
000060 d1 25 03 3c a8 b1 fb 3b ba bd 07 bc 74 f6 00 3c
       0.008004622 0.0076810904 -0.00828498 0.007871259
000070 bb 75 00 3c 8c 40 05 3c 75 40 08 bc 3e 44 02 bc
       0.007840569 0.008133065 -0.008316149 -0.0079508405
000080 6a db 10 bc 65 84 fe bb 62 a7 02 3c 33 e8 e7 bb
       -0.008841375 -0.0077672475 0.0079744775 -0.007077241
000090 b2 d5 10 bc f6 51 05 3c 0f 6c 07 3c 8a 42 08 bc
       -0.008840011 0.008137217 0.008265509 -0.008316645
0000a0 43 2d 09 bc 64 9c 07 3c 44 f1 0a bc f2 92 04 bc
       -0.008372608 0.0082770325 -0.008480374 -0.008091675
0000b0 4f d8 0b bc 8b dd 08 bc 8b ca 02 3c 90 18 0a bc
       -0.008535459 -0.008353601 0.00798286 -0.008428708
0000c0 86 38 09 3c b9 64 0b 3c 2f 19 01 3c 41 32 07 3c
       0.008375293 0.008507901 0.007879539 0.008251728
0000d0 21 89 ed bb dd 16 03 3c 79 b9 04 3c d3 2e ff bb
       -0.007249013 0.0080010565 0.008100861 -0.0077875643
0000e0 7d 91 04 3c e8 8c 0c 3c c3 1d 0b bc cc f5 03 3c
       0.008091328 0.008578517 -0.008490982 0.008054208
0000f0 39 29 07 bc 43 66 0b 3c 3d 52 01 3c 05 16 06 3c
       -0.008249574 0.008508268 0.007893142 0.008183961
000100 41 f8 cf 3b 4b ee 04 3c ac 8a 03 3c 4e fc e3 3b
       0.006346733 0.008113454 0.008028667 0.0069575673
000110 a5 60 01 3c 5f 34 0c bc c6 31 16 bc 4c fe 08 3c
       0.007896577 -0.008557408 -0.00916714 0.00836141
000120 6c 75 06 3c 50 61 0e bc 7f d7 07 3c e2 20 04 3c
       0.0082067065 -0.008690193 0.008291124 0.0080644805
000130 28 df 01 3c f0 64 02 3c 89 7f ff 3b 40 76 07 3c
       0.00792674 0.007958636 0.007797186 0.008267939
000140 9d fb 06 3c 7a f1 09 bc 46 07 0a 3c 32 93 10 3c
       0.0082387 -0.008419389 0.008424586 0.008824157
000150 61 2d 05 3c a3 c2 0a 3c b1 9d 06 bc 7b a6 0b 3c
       0.008128495 0.008469257 -0.0082163075 0.008523579
000160 54 32 14 bc 44 d7 0f bc 4a 13 fe 3b 82 07 09 3c
       -0.009045202 -0.008779351 0.0077537643 0.008363606
000170 dd a7 f2 3b 78 87 fd 3b c2 42 10 3c bf 9b 12 bc
       0.007405265 0.0077370964 0.008804979 -0.008948266
000180 58 34 0b bc bd e4 07 3c 1f 80 00 3c b0 1a 05 3c
       -0.008496366 0.008294282 0.007843046 0.008124039
000190 5e 95 f8 3b e9 7a 06 3c 1b 29 0d bc 91 53 04 3c
       0.0075861653 0.008208015 -0.008615757 0.008076564
0001a0 6c 57 07 3c d1 f5 0c 3c bf bd 05 3c 62 4b 13 bc
       0.008260589 0.008603529 0.008162915 -0.008990141
0001b0 7b 42 07 3c 75 6a 05 3c 90 10 07 3c ba 34 0d bc
       0.008255596 0.008143057 0.008243695 -0.008618528
0001c0 a3 d7 0d 3c 6e ba 05 3c 93 1f 14 bc 3c 4b 0b bc
       0.008657369 0.008162124 -0.009040731 -0.008501824
0001d0 7c e6 08 3c 28 2a f0 bb 87 16 03 3c 72 ba f8 bb
       0.008355733 -0.007329244 0.008000976 -0.0075905854
0001e0 ec 2b fd 3b 97 29 16 bc 2e 24 07 3c 0c 49 03 3c
       0.007726183 -0.009165189 0.008248372 0.008013021
0001f0 64 1a 05 bc 78 c3 00 bc 1f 12 05 3c 5b 09 0c 3c
       -0.008123968 -0.007859103 0.008121996 0.008547152
000200 53 fa 03 3c c4 c6 0b 3c 15 27 01 3c 9a 2f 02 3c
       0.008055287 0.008531276 0.007882853 0.007945919
000210 92 84 05 3c f7 f6 07 3c 9e 9a 01 3c d6 fa 01 3c
       0.008149283 0.008298627 0.007910399 0.007933339
000220 ea 01 0b 3c 4e d2 0b 3c 5a 42 02 bc c9 bc 0e bc
       0.008484343 0.008534027 -0.00795039 -0.008712002
000230 a5 e4 12 bc 56 63 0e bc 82 b4 0d 3c f3 68 0d 3c
       -0.008965646 -0.008690676 0.008648993 0.008630979
000240 6c 19 02 bc d1 48 03 bc 7a 2b 09 3c 05 f9 00 bc
       -0.007940631 -0.008012966 0.008372182 -0.007871871
000250 71 2f 00 bc ec 42 0a 3c 0f 4e 0e 3c f0 54 0a bc
       -0.007823811 0.008438807 0.008685603 -0.008443102
000260 f9 28 0f bc 51 c3 07 3c c1 17 0a 3c 43 d4 fb bb
       -0.008737796 0.008286313 0.008428515 -0.0076852157
000270 f3 90 0f 3c dd 7f 0d bc 2e 45 0f bc bd 5e 03 bc
       0.008762586 -0.008636442 -0.008744521 -0.008018193
000280 85 8d 0a 3c 85 10 08 3c 7a a9 04 3c 18 d2 0c bc
       0.008456592 0.00830472 0.008097047 -0.008595012
000290 38 b4 05 3c 7e 9e 09 3c 4c 72 08 bc fc 57 07 3c
       0.008160643 0.008399604 -0.008328032 0.008260723
0002a0 3c 33 17 bc 3b c5 01 bc 33 ce 05 3c ea 14 0c 3c
       -0.009228524 -0.007920559 0.0081668375 0.008549908
0002b0 23 31 0d bc 05 5c 08 3c 8c 3a 12 bc 12 96 0b bc
       -0.008617672 0.00832272 -0.0089250915 -0.008519666
0002c0 0f ff 0d bc 99 83 03 3c 7c 05 0e 3c f7 bb 0e 3c
       -0.008666768 0.008026981 0.0086683 0.0087118065
0002d0 fb 8f 08 3c 76 3d 03 3c c8 b5 0d bc 99 89 0a 3c
       0.008335109 0.008010259 -0.008649297 0.008455657
0002e0 74 bc 0d 3c e7 71 14 bc d2 81 0f bc 35 a5 0b 3c
       0.008650888 -0.00906036 -0.008758979 0.008523275
0002f0 8c 1e 08 3c 8d b8 06 3c 44 72 0f bc 9e cb 07 bc
       0.008308064 0.008222711 -0.00875527 -0.008288292
000300 69 c9 0d bc ea 80 10 3c e4 cf 03 3c 2f 4c 03 bc
       -0.008653977 0.008819798 0.00804517 -0.008013769
000310 13 de 0c bc 26 09 f8 3b e3 23 07 3c b8 46 ee 3b
       -0.0085978685 0.00756945 0.008248302 0.007271614
000320 23 8e 02 3c 24 92 c0 3b 4e c5 ee bb 60 df 11 3c
       0.007968458 0.0058767963 -0.007286704 0.008903354
000330 09 4d 08 3c 55 21 08 bc f1 42 0c 3c 51 28 08 3c
       0.008319148 -0.008308728 0.008560882 0.008310393
000340 f4 71 09 3c 52 09 0b bc 4f 19 0f bc e0 89 03 3c
       0.008388985 -0.008486109 -0.008734061 0.008028477
000350 a5 a2 16 bc d4 5e 0d 3c bd a0 02 3c 1b d0 05 3c
       -0.009194051 0.008628566 0.007972893 0.008167292
000360 cc d3 00 3c 9d 49 09 bc c3 5b 0c 3c 50 77 ff 3b
       0.007862996 -0.008379367 0.0085668 0.0077962056
000370 10 8a 11 bc 43 33 0d bc f1 cd 0e bc 85 38 07 3c
       -0.008883014 -0.008618179 -0.008716092 0.008253221
000380 db 40 0b bc e3 5c 06 bc 35 82 03 bc ba 16 03 3c
       -0.0084993495 -0.008200857 -0.008026649 0.008001024
000390 3c ca ff 3b a4 d6 10 3c 6b 09 0b bc a5 a4 0b bc
       0.0078060906 0.008840237 -0.008486132 -0.008523141
0003a0 50 d5 06 3c dc bf 02 3c 57 90 0d bc ed 54 08 3c
       0.008229569 0.007980313 -0.00864037 0.008321029
0003b0 38 36 0b bc 46 06 07 3c 28 92 06 3c 51 08 0a bc
       -0.0084968135 0.008241242 0.008213557 -0.008424834
0003c0 e4 06 05 3c e5 b8 00 bc b9 64 fc bb 6a 64 0a 3c
       0.008119319 -0.007856582 -0.0077024368 0.008446792
0003d0 4f 3d 09 bc e1 2e 06 3c 6f 42 01 3c a6 2e fc 3b
       -0.0083764335 0.008189888 0.007889374 0.0076959906
0003e0 68 a2 03 bc 7d 50 0d bc ec 2c 0f 3c 99 14 0b 3c
       -0.008034326 -0.008625147 0.008738738 0.008488798
0003f0 bf 4a 0b 3c 15 d6 0b bc 9f 7d 03 bc 84 6c 06 3c
       0.008501708 -0.008534928 -0.008025556 0.008204583

main.4.weight f4 [128, 256]
000000 94 5f e0 bc 84 80 a3 bc 65 57 e9 bc 3e f0 ee 3c
       -0.027389325 -0.019958742 -0.028484056 0.02916729
000010 72 62 86 bc 44 1f 08 bd 81 da a5 3c 84 93 4d 3c
       -0.016404364 -0.033232942 0.020245792 0.0125473775
000020 b8 78 00 bc f3 c1 bd bc e9 5b 44 bc a6 92 a2 3c
       -0.007841282 -0.023163771 -0.011984804 0.019845318
000030 24 02 09 3d fd 2d dc 3c 94 09 02 3d e3 f9 71 bc
       0.033449307 0.026877398 0.031747416 -0.01476905
000040 8a ba 89 bc 91 4f d2 3c 22 a6 86 3c ea 9d a2 3c
       -0.016812582 0.025672706 0.01643664 0.01985069
000050 3b a6 f4 bc 86 12 10 bc 64 b7 a7 bc 56 cd a8 3c
       -0.029864421 -0.008793479 -0.02047319 0.020605724
000060 16 24 00 bd 41 f9 c7 bc 41 2a 77 3c 8d 74 c6 bc
       -0.031284414 -0.024410846 0.015085758 -0.024225498
000070 42 d5 8e bc 70 fa c1 bc 7e 65 1d 3c ab 85 dd 3c
       -0.017435674 -0.023678988 0.009606717 0.027041277
000080 30 fa 12 3d ea 3c 64 3c 3d a7 8a bc 7a 92 44 3c
       0.03588313 0.013930539 -0.016925449 0.011997813
000090 b2 b5 2d 3d 45 b6 01 bd 0d 2b 98 bc c2 54 06 3c
       0.042409606 -0.031667966 -0.018575216 0.008198919
0000a0 6d 5c 6d 3c 64 1c ce bc bc a0 d9 3b d5 66 ce bb
       0.014487368 -0.025160022 0.0066414755 -0.0062988796
0000b0 0a ea b7 3c 48 98 4d 3c 30 0a d5 bc e7 a5 b7 3c
       0.022450466 0.012548514 -0.026005834 0.022417976
0000c0 07 93 37 3c 6f 0d 8c bc ba c7 ec bc 22 1d 01 bd
       0.011204488 -0.01709625 -0.02890383 -0.031521924
0000d0 5b 89 2f 3c 1c 8c bf bc cf 50 6b bc b5 92 09 3c
       0.0107139 -0.023382239 -0.014362528 0.008396794
0000e0 00 96 42 bc e7 3a 02 bd a2 a0 be 3c fc 75 d6 bc
       -0.011876583 -0.031794455 0.023269955 -0.026179306
0000f0 05 c2 98 3c d8 5d 2b bc 04 25 7c bc 0b f0 08 bc
       0.018647203 -0.010459386 -0.015389685 -0.008358012
000100 de 4a 49 ba 4e e2 f9 bc 72 c1 03 bd 9d 76 c0 bc
       -0.00076786976 -0.030503418 -0.032166906 -0.02349406
000110 37 d9 aa bc f8 b4 06 3c 95 dc 81 3c 5e e2 57 bc
       -0.02085553 0.008221857 0.015852252 -0.013176529
000120 e2 81 bb bc 8b 0b e9 3c bb 82 5f bc 6d 84 1f bb
       -0.022889081 0.028447887 -0.013642008 -0.0024340407
000130 cf 7a 9f bc ee 09 87 bc 0b 73 7f bc 70 e8 12 bd
       -0.01946774 -0.016484227 -0.015591393 -0.0358662
000140 3b ec eb bc 52 20 fc 3b 0c 25 10 bd 07 aa 64 bc
       -0.028799167 0.0076942826 -0.03519158 -0.013956553
000150 72 34 e6 bc 23 b4 a4 bc 0b 4a 8d 3c 35 f8 84 bc
       -0.02810118 -0.020105427 0.01724722 -0.016231636
000160 c3 12 a2 3c fa b7 bf 3c 4e 00 db bc db 88 6c bc
       0.019784337 0.023403157 -0.026733544 -0.014436926
000170 3e a8 ee bc 72 34 a1 bc 2e ec a5 bc 83 64 a7 3c
       -0.029132959 -0.019678328 -0.02025422 0.02043367
000180 9a 2f 7c 3c 05 19 d2 bc d1 d1 aa bc 19 be 50 bc
       0.0153922085 -0.025646696 -0.020852001 -0.012740635
000190 2b bb c2 bc d8 4e ab bc 8e ed 3b 3c 5d 7f 2e bc
       -0.02377089 -0.020911619 0.011470212 -0.010650483
0001a0 5c 4f 65 bc 51 a3 c2 bc 1a 7f 5b bc ef 62 16 3c
       -0.0139959715 -0.023759516 -0.013397003 0.009178861
0001b0 31 d5 d7 bc fc 65 91 bc 65 b2 d5 bb 8e ed ca 3c
       -0.026346775 -0.017748825 -0.0065215104 0.024771478
0001c0 30 16 69 bc 52 0b c7 bc 66 1f b2 3c 30 94 9f 3c
       -0.014226481 -0.02429739 0.021743488 0.019479841
0001d0 b1 71 98 bc a8 c0 17 3d 45 b9 c6 bc 56 52 ae 3c
       -0.0186089 0.037048966 -0.024258265 0.021279495
0001e0 be 2d b0 bc 35 60 f6 3c d1 e9 59 bc c5 93 b1 bc
       -0.021506187 0.030075172 -0.013300375 -0.021676907
0001f0 1c 06 8b 3c 91 fe 0c 3c 25 a5 d8 bc 7f 25 82 bb
       0.016970687 0.008605615 -0.026445935 -0.003971755
000200 55 62 d5 bc 50 19 d9 bc 21 a1 3a bc 71 50 7b bc
       -0.026047865 -0.026501328 -0.011390955 -0.015339003
000210 a4 4e c2 bc 49 7d 1c bd 57 69 b3 bc c9 48 87 bc
       -0.02371914 -0.03820542 -0.021900816 -0.016514199
000220 a9 81 82 bc 51 07 4d bc 9a 78 46 3c 2d 8e ae 3b
       -0.015930967 -0.012513951 0.012113715 0.0053270073
000230 e1 6b ff 3b 28 c7 84 3c f7 c1 9d bc ca 02 bb bc
       0.0077948426 0.016208246 -0.019257529 -0.022828478
000240 90 57 33 3c c0 2f 8d 3c ed d2 f0 bc 92 e3 d9 3b
       0.0109461695 0.017234683 -0.029397452 0.006649443
000250 e3 c0 e4 3c 87 11 92 bc 60 2b d7 bc 5a 34 85 3b
       0.027924007 -0.017830623 -0.0262658 0.0040650787
000260 bd 2d 90 3c c7 78 b3 bb f9 f2 6e bc 3d 67 55 3c
       0.017599935 -0.0054770443 -0.014584296 0.013025102
000270 4c 8e fe bc f7 5f b6 3c ec 23 7a 3c 63 64 e4 3c
       -0.031073712 0.022262556 0.0152673535 0.0278799
000280 08 74 c3 bb 79 e1 e3 bc fa ba a4 bc d1 c0 8f 3c
       -0.0059647597 -0.027817475 -0.020108689 0.017547997
000290 8b f8 a8 bc 75 d4 d4 bc 3a bd 02 3d 4d 36 81 bc
       -0.020626327 -0.025980214 0.03191874 -0.015772963
0002a0 fe 09 62 3c 63 3c db 3c 69 27 95 bc 10 72 bc bc
       0.013796328 0.026762193 -0.018207269 -0.023003608
0002b0 09 bc bd 3c 0a 90 94 bb a4 9d 51 3c 8f 5e b4 3c
       0.023160951 -0.0045337724 0.012793932 0.022017745
0002c0 96 ab d2 3c 0f f2 0f bc 70 d5 9d bc 8e 96 56 3b
       0.025716584 -0.008785739 -0.019266814 0.0032743546
0002d0 af 59 5e bc 51 1c ce bc 96 28 46 3c ff 8d 9f bc
       -0.013571187 -0.025159987 0.012094637 -0.019476889
0002e0 66 f4 bc bc 1c 5f 72 bb 53 20 d4 3a fe 94 7d bc
       -0.023065757 -0.003698296 0.001618395 -0.015477417
0002f0 3a 18 8b bc 14 d2 96 bc 4c e0 68 3c 9c 54 f3 3c
       -0.016979326 -0.01841072 0.014213633 0.02970343
000300 f6 1b 41 3c 2d 7d 72 bc d0 03 a2 bc dc ba 91 3c
       0.011786452 -0.014800352 -0.019777209 0.017789297
000310 4b 37 83 3c 9d 64 d0 bc f8 2a 7d bc eb 46 6c bc
       0.016017577 -0.025438601 -0.015452139 -0.014421205
000320 57 64 22 bc 77 b4 85 bc a8 8f dc 3b 7a 06 77 bc
       -0.009911618 -0.016321404 0.0067309923 -0.015077228
000330 db 78 af bc 89 a9 87 3c 60 8d 85 bc 5b 87 d9 bc
       -0.021419933 0.016560333 -0.016302764 -0.0265538
000340 3b 3e b0 bc a0 bb 17 3c 2b 90 2d 3c 7c 64 96 bc
       -0.021514049 0.009261042 0.010593454 -0.018358462
000350 0d 13 89 3c 4b 82 ea bc 83 b1 22 bc 63 b2 31 bc
       0.016732717 -0.028626582 -0.009930017 -0.010845753
000360 a4 f3 4f bc 18 39 cd 3c 1a 5f a8 bc 90 92 19 bc
       -0.012692366 0.025051638 -0.02055316 -0.009373322
000370 ca fb 0e 3c 99 20 1c 3d 20 a3 99 3b d2 03 27 bd
       0.008727023 0.038117025 0.0046886355 -0.040775128
000380 23 c1 2b 3c cc 75 03 3c 8e c9 98 3c de 5f 8e bc
       0.010483059 0.00802369 0.018650796 -0.017379697
000390 ba 93 8f 39 8a 7b 83 bc b3 fe 2d 3c 77 82 34 3c
       0.0002738515 -0.016050119 0.010619807 0.011017433
0003a0 5b a9 15 bb 29 a3 20 bd c8 f3 a7 3c 81 3a 36 bc
       -0.002283654 -0.0392181 0.020501986 -0.011122347
0003b0 70 1b c1 3c ce e4 ae bc b9 73 97 bc d4 ef 7c 3c
       0.023572654 -0.021349337 -0.018487798 0.015438039
0003c0 97 0e e9 bc d8 88 1c 3b 83 00 c7 3c 44 c9 5d bc
       -0.02844934 0.0023885276 0.024292236 -0.013536755
0003d0 0d cd 26 3c 84 7f 0e bc 12 a0 c3 bc 9e 6c ce bc
       0.010180724 -0.008697394 -0.023880038 -0.025198277
0003e0 7c a9 fc 3c 6d bc 4e 3c b9 52 f7 bc 6b 29 05 bd
       0.030842535 0.012618166 -0.030190812 -0.032510202
0003f0 8d be 17 bc b4 df 44 3c fb 5e 89 3c ab 81 86 bc
       -0.009261739 0.012016226 0.016768923 -0.016419252

main.4.bias f4 [128]
000000 1a 66 c1 bb 3e 74 ea bb d9 30 e5 bb 9b 37 bf bb
       -0.005902064 -0.0071549704 -0.0069943485 -0.005835486
000010 22 9c d6 bb 88 ad cf bb b4 aa d2 3b ba 4c cd bb
       -0.006549374 -0.006337825 0.006429041 -0.00626525
000020 f1 11 d3 3b 04 6e cd bb b9 b7 be bb 9d b8 d1 bb
       0.0064413478 -0.0062692184 -0.0058202413 -0.0064001814
000030 9c 4a bd 3b 45 84 c6 bb 8c 20 c0 3b 45 79 c7 3b
       0.0057767164 -0.006058248 0.005863255 0.0060874545
000040 ee a0 e0 3b b6 8c e2 bb 42 07 cb 3b 80 d1 ec 3b
       0.006855122 -0.0069137467 0.0061959336 0.007227123
000050 8e e9 c9 3b 5a 47 d1 3b 64 34 db 3b db 44 d0 3b
       0.006161875 0.0063866796 0.006689595 0.0063558645
000060 17 9b c7 bb 0e 20 e4 3b c9 b1 cb bb 4a 60 d8 3b
       -0.006091486 0.006961829 -0.006216262 0.0066032754
000070 7b 1c d8 3b e1 39 da 3b f4 58 db 3b 3f 5d e9 bb
       0.006595192 0.0066597317 0.0066939536 -0.0071217115
000080 c7 47 dc bb 3a e6 ce 3b 17 34 c6 3b 82 96 c4 bb
       -0.0067224237 0.0063140662 0.00604869 -0.0059993872
000090 4d f9 b9 3b df ae c8 bb 6c cc e5 bb 52 58 e5 3b
       0.005675471 -0.006124362 -0.0070128944 0.006999054
0000a0 91 e5 d1 bb f4 09 d7 bb 38 94 d2 bb de 60 d8 bb
       -0.0064055403 -0.006562466 -0.0064263605 -0.0066033443
0000b0 4e e4 ee 3b b1 63 c8 3b 41 d0 db bb e8 a4 d3 3b
       0.0072903996 0.0061153998 -0.0067081754 0.0064588673
0000c0 37 26 c2 3b 54 9f d4 3b 0c 93 86 bb ba 0f d7 3b
       0.0059249657 0.00648872 -0.004106885 0.006563154
0000d0 cd 28 d5 3b 1c bd de bb 1e 41 c4 bb b4 70 c3 3b
       0.006505108 -0.006797446 -0.005989208 0.005964363
0000e0 48 23 d6 3b e6 e4 ea bb 4a 83 e6 bb 08 5c be 3b
       0.0065349676 -0.0071684 -0.007034694 0.005809311
0000f0 d4 ce d6 3b 52 96 c9 3b 98 7b b8 3b b5 9f c0 3b
       0.0065554176 0.006151953 0.005629968 0.0058784136
000100 93 79 d6 bb cf 98 c9 bb 91 e6 d8 3b 72 a3 ec 3b
       -0.0065452545 -0.0061522494 0.0066192825 0.0072216326
000110 6c da fe bb 9b aa bb 3b 71 b1 e4 bb e9 7d d3 3b
       -0.0077775028 0.005727125 -0.0069791605 0.0064542186
000120 37 9c c5 bb 85 7a c8 3b 5a 6e ce bb a8 f6 9e bb
       -0.006030585 0.006118121 -0.006299776 -0.004851181
000130 c2 7e f4 bb b1 b2 e5 bb e6 f9 f1 bb d8 68 d0 3b
       -0.0074614 -0.007009827 -0.0073845265 0.0063601546
000140 77 0a e1 3b 5c 48 ca 3b da 67 e1 3b b7 00 ca 3b
       0.0068677026 0.0061731767 0.006878835 0.006164636
000150 e7 cf dd 3b f9 60 e3 3b 78 7a ad bb 3d b1 db bb
       0.0067691687 0.0069390503 -0.0052941404 -0.006704478
000160 3a c5 d4 3b d1 88 c1 bb f9 03 d8 3b 96 98 fb bb
       0.006493238 -0.0059062024 0.0065922705 -0.007678102
000170 37 09 c1 3b 5d 7c d1 bb d4 8b bf bb 8f 70 cd bb
       0.005890991 -0.006392999 -0.0058455262 -0.0062695215
000180 0e e0 ee 3b 1d a7 eb bb 94 0e e4 3b 02 7b e6 bb
       0.007289893 -0.0071915523 0.0069597457 -0.0070337066
000190 b3 57 dc 3b 67 31 c1 3b f6 49 d0 bb 4e 0d fb bb
       0.0067243217 0.005895782 -0.006356473 -0.007661498
0001a0 c4 ef d5 3b 98 fc ba bb 72 e6 e1 3b 2f ce f8 bb
       0.0065288264 -0.005706381 0.0068939263 -0.0075929384
0001b0 28 b2 cc bb 82 24 cc bb b5 69 d2 bb bb 2f ee bb
       -0.006246824 -0.006229938 -0.0064212927 -0.0072688735
0001c0 ac 9f d2 bb 19 0d e1 3b 7e a1 ba bb eb 61 d1 bb
       -0.006427726 0.0068680164 -0.005695521 -0.0063898466
0001d0 ae ce ce 3b ad 54 db bb 8a 69 db 3b d3 99 e1 3b
       0.006311259 -0.0066934437 0.006695931 0.0068847924
0001e0 e4 ec d6 3b 59 54 c7 3b 85 1b e6 3b 5f 48 d9 bb
       0.0065590013 0.006083053 0.0070223236 -0.0066309418
0001f0 4a 54 c1 bb 53 33 d0 bb 23 c6 ed bb 17 72 c5 3b
       -0.0058999406 -0.0063537746 -0.0072562858 0.0060255635
